dqn_hangman.pt (torch, 602416 bytes, 6 tensors)

net.0.weight f4 [512, 157]
77.70439 7.356082 7.975011 7.0451484 32.385857 5.626506 7.2750964 5.702307
0.95629776 5.706319 4.105607 5.6679792 6.2665834 2.5281804 2.8396833 7.8653474
1.2545244 3.5967464 151.0544 7.3852186 10.201219 1.9727541 42.332405 0.13827026
1.6851964 0.8186075 154.60356 0.38658816 1.7389327 0.92592573 92.82392 0.0057083657
1.1340221 6.564603 9.095011 -0.2210673 0.7442244 6.528216 1.32454 3.4839911
13.4740715 2.7694166 0.23599455 5.0269766 31.30771 2.6793387 31.901186 0.844133
22.319183 0.48284137 1.7984183 0.48074818 116.77109 3.9523299 4.119495 4.1045203
70.88587 1.6844931 3.9729867 1.3097496 9.177372 0.07699736 3.1531367 7.8319273
6.2958965 7.8850217 6.7471256 3.543407 0.12994856 7.3777394 80.16119 5.7597504
25.308083 2.4436471 30.88505 1.6759288 1.9947467 1.6220912 96.7573 1.8315243
3.360555 5.1462684 125.9743 1.9938633 3.4666877 2.0764802 6.5375533 -1.4338045
5.145939 7.2968836 4.52304 7.579551 4.295582 3.6568918 0.029308664 3.9536028
86.8151 8.624571 18.347239 1.2332536 19.981207 0.07073808 1.1802132 1.1512605
62.5401 0.40410396 1.1693008 7.573923 88.064156 0.6979475 1.4102902 2.4595103
1.5364158 -0.048327766 2.504355 4.081232 1.9612571 5.1341853 2.1589375 1.6893517
-0.016825084 5.173303 242.67854 5.58816 1.1173629 0.011283166 9.728162 0.7746299
7.4288993 0.07283287 306.63596 24.801016 26.199394 27.77875 226.96564 25.884706
26.68853 26.661991 31.33478 38.434258 26.229364 29.620464 26.46306 27.902252
30.523863 25.886826 22.293392 26.805866 375.41776 30.07606 81.76215 24.114607
150.90489 23.152454 26.899433 22.30502 530.40515 77.71 7.4581137 8.001658
6.985871 32.327297 5.5521894 7.2498927 5.6835394 0.9974877 5.718484 4.029436
5.788513 6.196481 2.422253 2.8450966 7.9342175 1.2761157 3.6232247 150.84378
7.483818 10.164321 2.0402653 42.34545 0.022119153 1.6519486 0.7273141 154.41096
0.33137 1.735407 1.0256771 92.82352 0.0037713118 1.2412884 6.656971 9.097802
-0.30039185 0.7136899 6.5957236 1.3415163 3.472775 13.392123 2.6698341 0.22419648
4.9882092 31.364206 2.6884 31.853275 0.7599987 22.249517 0.4400125 1.8199329
0.44139042 116.77398 3.9560418 4.116086 4.124271 70.87853 1.816896 3.9523053
1.2232662 9.174645 0.038657367 3.1306548 7.8781285 6.295451 7.8152885 6.7966847
3.6061153 0.13925982 7.351995 80.16531 5.830083 25.193007 2.529272 30.777187
1.7721772 1.912992 1.5006863 96.6748 1.8530407 3.4140234 5.130689 125.729515
2.0292242 3.4785306 2.0478647 6.611637 -1.404041 5.1306047 7.2796564 4.444464
7.4779234 4.2702246 3.7112908 0.08082614 3.9060702 86.57195 8.671811 18.410116
00000000: a668 9b42 0665 eb40 4a33 ff40 db71 e140
00000010: 1e8b 0142 560c b440 97cd e840 4d79 b640
00000020: eecf 743f 2a9a b640 2261 8340 1660 b540
00000030: da87 c840 b5cd 2140 5fbd 3540 edb0 fb40
00000040: 4194 a03f 1831 6640 ed0d 1743 b653 ec40
00000050: 3138 2341 3583 fc3f 6254 2942 b896 0d3e
00000060: 84b4 d73f 4390 513f 839a 1a43 e2ee c53e
00000070: 5995 de3f 7809 6d3f d9a5 b942 3e0d bb3b
00000080: a327 913f 3a11 d240 2a85 1141 775f 62be
00000090: 7e85 3e3f 25e7 d040 878a a93f b6f9 5e40
000000a0: cc95 5741 1f3e 3140 8ea8 713e fedc a040
000000b0: 3176 fa41 497a 2b40 a135 ff41 1a19 583f
000000c0: b08d b241 fc36 f73e 9232 e63f a024 f63e
000000d0: cc8a e942 f9f2 7c40 e7d2 8340 3b58 8340
000000e0: 91c5 8d42 789d d73f 6a45 7e40 e0a5 a73f
000000f0: 84d6 1241 cbb0 9d3d fecc 4940 269f fa40
00000100: fc77 c940 1952 fc40 74e8 d740 2ec7 6240
00000110: 3c11 053e 7116 ec40 8752 a042 e04f b840
00000120: f476 ca41 b764 1c40 9514 f741 d684 d63f
00000130: dc53 ff3f afa0 cf3f bd83 c142 636f ea3f
00000140: 5513 5740 3bae a440 d7f2 fb42 ea36 ff3f
00000150: 36de 5d40 0de5 0440 a333 d140 e886 b7bf
00000160: 88ab a440 1280 e940 bebc 9040 af8b f240
00000170: 6875 8940 840a 6a40 b918 f03c d407 7d40
00000180: 55a1 ad42 3efe 0941 25c7 9241 41db 9d3f
00000190: 83d9 9f41 20df 903d 3a11 973f 815c 933f
000001a0: 1029 7a42 b7e6 ce3e a6ab 953f 945d f240
000001b0: d920 b042 b0ac 323f 6484 b43f 9e68 1d40
000001c0: 46a9 c43f 56f3 45bd 5a47 2040 7499 8240
000001d0: 790a fb3f 3f4b a440 082c 0a40 ad3c d83f
000001e0: c2d4 89bc b38b a540 b5ad 7243 35d2 b240
000001f0: bf05 8f3f 07dd 383c 8da6 1b41 254e 463f
00000200: 8bb9 ed40 6629 953d 6751 9943 7b68 c641
00000210: 5c98 d141 e13a de41 34f7 6243 e113 cf41
00000220: 1c82 d541 c24b d541 a1ad fa41 aebc 1942
00000230: bdd5 d141 b6f6 ec41 59b4 d341 d037 df41
00000240: df30 f441 3818 cf41 de58 b241 6a72 d641
00000250: 79b5 bb43 c59b f041 3986 a342 b7ea c041
00000260: a7e7 1643 3a38 b941 0a32 d741 ae70 b241
00000270: ee99 0444 856b 9b42 dea8 ee40 cb06 0041
00000280: 418c df40 274f 0142 89ab b140 1fff e740
00000290: 8edf b540 5b5b 7f3f d2fd b640 24f1 8040
000002a0: 803b b940 9349 c640 3106 1b40 1016 3640
000002b0: 1ce5 fd40 c257 a33f eae2 6740 02d8 1643
000002c0: 707b ef40 0fa1 2241 b593 0240 be61 2942
000002d0: 3a33 b53c 0d73 d33f 4231 3a3f 3569 1a43
000002e0: 54a9 a93e d121 de3f 6349 833f a4a5 b942
000002f0: 1d28 773b 8ae2 9e3f e805 d540 9990 1141
00000300: f6cc 99be 62b4 363f 2b10 d340 ceb6 ab3f
00000310: f241 5e40 2346 5641 90de 2a40 c393 653e
00000320: 699f 9f40 e5e9 fa41 bf0e 2c40 82d3 fe41
00000330: 468f 423f 03ff b141 5249 e13e 90f3 e83f
00000340: edfd e13e 478c e942 ca2f 7d40 fab6 8340
00000350: 07fa 8340 cfc1 8d42 0c90 e83f 92f2 7c40
00000360: fd93 9c3f 59cb 1241 3057 1e3d a65c 4840
00000370: a119 fc40 5674 c940 d816 fa40 717e d940
00000380: 98ca 6640 209a 0e3e 8b43 eb40 a454 a042
00000390: 0a90 ba40 478b c941 98df 2140 ae37 f641
000003a0: b4d6 e23f ecdc f43f 7d16 c03f 7f59 c142
000003b0: 7030 ed3f 5c7f 5a40 9b2e a440 8375 fb42
000003c0: cfde 0140 3fa0 5e40 3710 0340 8892 d340
000003d0: 9eb7 b3bf ea2d a440 f2f2 e840 0d39 8e40
000003e0: 264b ef40 aea5 8840 ca85 6d40 2d88 a53d
000003f0: 0efd 7940 d724 ad42 bdbf 0a41 eb47 9341

net.0.bias f4 [512]
447.24176 446.6941 447.21732 447.32297 447.23166 447.31674 447.22598 447.33575
447.2592 447.2124 447.22153 447.16974 447.2826 447.27786 447.2404 447.33356
447.29553 447.3083 447.34244 447.3068 447.262 447.34753 447.2291 447.33582
447.2323 447.2689 447.29657 447.2314 447.29587 431.12482 447.24448 447.27765
447.32593 445.72125 447.20117 447.27582 447.29898 447.28976 447.25812 447.27722
447.2552 447.265 447.32864 447.30573 447.28397 447.23538 447.27423 447.22345
447.25543 447.21936 447.235 447.3406 447.23532 446.54672 447.3145 447.23337
447.19604 447.286 447.2378 447.24088 447.31488 447.29187 447.19513 447.32315
447.19205 447.31207 447.3343 447.32483 447.34143 447.26285 447.1885 447.33252
447.27942 447.3038 447.30637 447.3279 447.33987 447.238 447.22086 447.30627
447.189 447.26883 447.31265 447.27005 447.26874 447.24713 446.9549 447.1655
447.23007 447.32495 447.1724 447.2776 447.28983 447.23645 447.2138 447.30548
447.24854 447.22757 444.1706 447.26367 447.27075 447.2836 447.30194 447.2638
447.262 447.21964 447.2868 447.22485 447.28104 447.21762 447.33258 447.18594
447.20886 447.22784 447.3288 447.3355 447.33313 446.81793 447.2175 447.3429
447.2634 447.29462 447.32095 447.2307 447.2008 447.08084 447.26965 447.1779
447.2735 447.3144 447.19714 447.2767 447.29837 447.2861 447.21454 447.2566
447.3203 447.2313 447.21408 447.2438 447.2563 447.19708 446.03955 447.1877
447.1843 447.31604 447.30707 447.28387 447.2275 447.30774 425.69254 447.3199
447.19888 447.29755 443.20563 447.2842 447.24295 447.20532 447.2496 447.1836
447.2469 447.24808 447.34726 447.30426 447.3469 447.1495 447.26608 447.19604
447.32785 447.299 447.19028 447.22958 447.24133 447.28055 447.2966 447.23218
447.25256 447.29 447.30862 447.31406 447.08887 447.35013 447.2829 445.18597
447.2847 447.21494 447.22107 447.29395 446.02118 447.26862 447.2492 447.2195
446.87338 447.21896 447.23682 447.2515 447.19467 447.12802 447.2943 447.31393
447.26035 447.21777 447.24432 447.20078 447.2746 -0.11969195 447.2537 447.32565
446.85507 447.2773 447.20114 447.27377 447.2476 447.27234 447.25275 447.3426
447.267 447.2942 447.25415 447.209 447.17532 447.33447 447.15457 447.23663
447.25922 447.21445 447.1935 447.19257 447.2772 447.20453 447.17184 447.28043
447.31204 447.24884 447.11688 447.31738 447.18732 447.20508 447.26413 447.22028
447.21634 447.18222 447.3212 447.35095 447.15173 447.2269 447.16864 447.31116
447.3025 447.27612 447.24994 447.2755 447.35434 447.27722 447.19113 447.267
00000000: f29e df43 d858 df43 d19b df43 57a9 df43
00000010: a79d df43 8ba8 df43 ed9c df43 faaa df43
00000020: 2da1 df43 309b df43 5b9c df43 ba95 df43
00000030: 2ca4 df43 91a3 df43 c59e df43 b2aa df43
00000040: d4a5 df43 76a7 df43 d5ab df43 45a7 df43
00000050: 89a1 df43 7cac df43 539d df43 fcaa df43
00000060: bc9d df43 6ba2 df43 f6a5 df43 9f9d df43
00000070: dfa5 df43 fa8f d743 4b9f df43 8aa3 df43
00000080: b8a9 df43 52dc de43 c099 df43 4ea3 df43
00000090: 45a6 df43 17a5 df43 0aa1 df43 7ca3 df43
000000a0: aaa0 df43 eca1 df43 11aa df43 22a7 df43
000000b0: 59a4 df43 219e df43 1aa3 df43 9a9c df43
000000c0: b2a0 df43 149c df43 149e df43 99ab df43
000000d0: 1f9e df43 fb45 df43 42a8 df43 df9d df43
000000e0: 1899 df43 9ca4 df43 709e df43 d59e df43
000000f0: 4ea8 df43 5ca5 df43 fa98 df43 5da9 df43
00000100: 9598 df43 f2a7 df43 caaa df43 94a9 df43
00000110: b4ab df43 a5a1 df43 2198 df43 90aa df43
00000120: c4a3 df43 e3a6 df43 37a7 df43 f9a9 df43
00000130: 81ab df43 779e df43 459c df43 34a7 df43
00000140: 3198 df43 69a2 df43 05a8 df43 91a2 df43
00000150: 66a2 df43 a29f df43 3a7a df43 2f95 df43
00000160: 739d df43 98a9 df43 1196 df43 88a3 df43
00000170: 19a5 df43 449e df43 5e9b df43 1aa7 df43
00000180: d09f df43 219d df43 d615 de43 c0a1 df43
00000190: a8a2 df43 4da4 df43 a6a6 df43 c4a1 df43
000001a0: 89a1 df43 1d9c df43 b6a4 df43 c89c df43
000001b0: f9a3 df43 db9b df43 92aa df43 cd97 df43
000001c0: bc9a df43 2a9d df43 16aa df43 f2aa df43
000001d0: a4aa df43 b268 df43 d79b df43 e4ab df43
000001e0: b7a1 df43 b6a5 df43 15a9 df43 889d df43
000001f0: b499 df43 598a df43 84a2 df43 c596 df43
00000200: 02a3 df43 3ea8 df43 3c99 df43 6ba3 df43
00000210: 31a6 df43 9fa4 df43 769b df43 d8a0 df43
00000220: 00a9 df43 9b9d df43 679b df43 359f df43
00000230: cea0 df43 3a99 df43 1005 df43 0798 df43
00000240: 9797 df43 74a8 df43 4ea7 df43 56a4 df43
00000250: 1f9d df43 64a7 df43 a5d8 d443 f2a8 df43
00000260: 7599 df43 16a6 df43 529a dd43 61a4 df43
00000270: 199f df43 489a df43 f39f df43 8097 df43
00000280: 9a9f df43 c19f df43 73ac df43 f2a6 df43
00000290: 67ac df43 2393 df43 0fa2 df43 1899 df43
000002a0: f7a9 df43 46a6 df43 5b98 df43 639d df43
000002b0: e49e df43 e9a3 df43 f7a5 df43 b89d df43
000002c0: 54a0 df43 1fa5 df43 81a7 df43 33a8 df43
000002d0: 608b df43 d1ac df43 36a4 df43 ce97 de43
000002e0: 71a4 df43 839b df43 4c9c df43 a0a5 df43
000002f0: b602 df43 62a2 df43 e69f df43 199c df43
00000300: cb6f df43 079c df43 509e df43 31a0 df43
00000310: eb98 df43 6390 df43 aca5 df43 2fa8 df43
00000320: 53a1 df43 e09b df43 469f df43 b399 df43
00000330: 26a3 df43 0e21 f5bd 79a0 df43 afa9 df43
00000340: 736d df43 7fa3 df43 bf99 df43 0ba3 df43
00000350: b19f df43 dca2 df43 5aa0 df43 daab df43
00000360: 2da2 df43 a8a5 df43 88a0 df43 c19a df43
00000370: 7196 df43 d0aa df43 c993 df43 4a9e df43
00000380: 2ea1 df43 739b df43 c598 df43 a698 df43
00000390: 7ba3 df43 2e9a df43 ff95 df43 e5a3 df43
000003a0: f1a7 df43 da9f df43 f68e df43 a0a8 df43
000003b0: fa97 df43 409a df43 cfa1 df43 329c df43
000003c0: b19b df43 5397 df43 1da9 df43 ecac df43
000003d0: 6c93 df43 0b9d df43 9695 df43 d4a7 df43
000003e0: b8a6 df43 58a3 df43 fe9f df43 44a3 df43
000003f0: 5bad df43 7ca3 df43 7798 df43 2da2 df43

net.2.weight f4 [128, 512]
-0.029075017 -0.024051605 0.0059497133 -0.001418191 -0.0011730664 -0.008492585 -0.020306744 0.03309441
0.03129824 -0.018455971 -0.038806304 -0.018054552 0.036527995 0.0076481877 0.002937457 -0.022367552
0.0008157069 -0.042622752 0.009438276 0.034516018 -0.004283212 -0.038058016 -0.033358112 0.017220832
0.024281982 -0.0375549 0.0073758503 0.0038000222 -0.04384352 -0.013530271 -0.01454691 0.014196847
0.024431152 0.028284762 -0.03521136 -0.022265423 0.0171472 -0.012072702 0.007710125 0.036956277
-0.030411972 -0.029763533 -0.03703523 0.007200952 -0.012344626 -0.031499844 0.027008314 -0.027778767
0.027366068 0.018694252 0.02174001 -0.022090325 -0.009997208 0.01573348 0.011723314 -0.014792659
-0.027305167 -0.013896267 0.016391797 -0.004170681 0.0048573455 -0.029191585 0.00436589 0.028746322
-0.02715473 -0.01649285 -0.03987144 -0.015497606 0.011962593 0.0030923195 0.020640437 0.030704787
-0.045460884 0.015668195 -0.044872414 -0.021225326 -0.04477344 -0.012231679 -0.011847004 -0.012352062
-0.014992697 -0.009521019 -0.011031572 0.0032967073 -0.013833631 -0.010191965 0.028835254 -0.024051856
-0.040511485 0.035296224 0.014927022 0.017137768 -0.019504039 -0.035158537 -0.024249947 -0.021567013
-0.04025967 0.037648674 -0.0051276023 -0.023981556 -0.038001634 0.0012107529 0.014852181 0.029887147
-0.01652194 -0.04651227 -0.049614694 0.03397533 -0.017874535 0.042857215 0.03351101 0.029164644
-0.02505966 -0.039595537 -0.0296996 0.030427385 0.02882574 -0.007155996 -0.0010922402 -0.019322073
-0.024599219 0.010892861 0.030611388 0.033875633 0.008725837 -0.039255537 -0.03234289 -0.023047829
0.031212209 -0.04160544 0.010840245 0.00043797866 0.018739302 0.03001328 0.0010537542 0.0311886
0.03394533 -0.019250628 0.028117625 0.0034657947 -0.00392948 -0.0042112195 -0.0010856391 0.014216613
0.015032739 0.03652497 -0.040341213 0.014846912 0.0010935888 -0.017085413 -0.0037477836 -0.020740427
-0.01384476 -0.047756776 0.038525973 0.0027302636 0.02588321 -0.036400758 -0.00056719035 0.027380843
-0.035189778 -0.01280649 0.017151577 0.038751036 -0.02767855 0.024066903 0.027227644 0.024316974
-0.020684024 -0.03607454 -0.00052550435 0.031916495 -0.032132424 -0.018622477 0.03789315 -0.008739222
-0.029407203 -0.03102912 0.013318018 0.0022535496 0.036836427 0.0049083526 -0.0456158 -0.0065912246
-0.030341359 0.031463046 0.0096208295 0.020225918 0.043614637 -0.015327125 0.022344815 -0.033012815
-0.028941318 -0.014439678 -0.014199101 -0.03869328 -0.026672775 -0.039762117 -0.0077170134 0.004159368
0.010964386 -0.03081093 -0.034535747 0.0009525083 -0.04525215 0.028505992 0.008930743 -0.02878982
-0.041135866 -0.0030269842 0.029037453 0.02991825 0.021176314 0.016322844 0.019340474 0.0022442597
0.013215278 -0.03654788 -0.04132785 0.0319061 0.01043983 -0.049163654 0.037802678 0.018700879
-0.036608517 -0.014033599 0.032814737 0.006193237 -0.027397059 0.021262687 -0.030949457 -0.03396162
-0.0410196 0.031550847 -0.036973637 0.020536127 -0.031137394 0.04075699 -0.011447666 -0.034918323
-0.022980504 -0.0053507187 0.01288628 -0.022592578 -0.03329112 0.03995167 -0.030602973 -0.049040295
-0.00422671 -0.046027027 0.004014274 -0.039637234 -0.00095390977 0.006357555 -0.041719005 -0.021431092
00000000: bb2e eebc df07 c5bc d0f5 c23b 98e2 b9ba
00000010: 94c1 99ba 7c24 0bbc 545a a6bc 018e 073d
00000020: 9532 003d fa30 97bc 5cf3 1ebd 24e7 93bc
00000030: 619e 153d a69d fa3b 5a82 403b 283c b7bc
00000040: 2ad5 553a 3295 2ebd 00a3 1a3c ab60 0d3d
00000050: 305a 8cbb b9e2 1bbd 84a2 08bd b412 8d3c
00000060: 02eb c63c 2bd3 19bd 1eb1 f13b cb09 793b
00000070: 4395 33bd 12ae 5dbc 2a56 6ebc e499 683c
00000080: d723 c83c 72b5 e73c c939 10bd fa65 b6bc
00000090: 4978 8c3c 95cc 45bc 37a5 fc3b 775f 173d
000000a0: 8722 f9bc a7d2 f3bc 41b2 17bd f7f5 eb3b
000000b0: 1d41 4abc fb05 01bd 8a40 dd3c 4c90 e3bc
000000c0: ce2e e03c b024 993c 1b18 b23c c5f6 b4bc
000000d0: 54cb 23bc 80e3 803c 2513 403c e95c 72bc
000000e0: 16af dfbc 2bad 63bc 1748 863c 35aa 88bb
000000f0: 5e2a 9f3b 3123 efbc bd0f 8f3b 687d eb3c
00000100: 9973 debc 031c 87bc 3c50 23bd ace9 7dbc
00000110: c0fe 433c 83a8 4a3b 2216 a93c 9b88 fb3c
00000120: 3135 3abd 965a 803c 23cc 37bd bce0 adbc
00000130: 5b64 37bd 6167 48bc f019 42bc 4e60 4abc
00000140: eea3 75bc 0cfe 1bbc c4bd 34bc 920d 583b
00000150: 74a6 62bc 33fc 26bc e937 ec3c 6608 c5bc
00000160: 5fef 25bd c692 103d 7890 743c 8164 8c3c
00000170: efc6 9fbc 6602 10bd d3a7 c6bc 4ead b0bc
00000180: 53e7 24bd 7f35 1a3d 7205 a8bb f874 c4bc
00000190: 9aa7 1bbd 20b2 9e3a 9056 733c e4d5 f43c
000001a0: 0559 87bc a683 3ebd c738 4bbd b729 0b3d
000001b0: 9e6d 92bc 0c8b 2f3d d742 093d b1ea ee3c
000001c0: eb49 cdbc ee2e 22bd 934c f3bc da42 f93c
000001d0: f523 ec3c d87c eabb 8029 8fba 5349 9ebc
000001e0: 4d84 c9bc f877 323c bcc4 fa3c 2dc1 0a3d
000001f0: d0f6 0e3c 6aca 20bd fa79 04bd cdce bcbc
00000200: bfb0 ff3c 776a 2abd 489b 313c 80a0 e539
00000210: 2a83 993c 69de f53c 201e 8a3a 3c7f ff3c
00000220: 420a 0b3d 7eb3 9dbc ef56 e63c 6322 633b
00000230: dec2 80bb 45fe 89bb 014c 8eba ccec 683c
00000240: e14b 763c 359b 153d d43c 25bd 7640 733c
00000250: c056 8f3a b5f6 8bbc 609d 75bb d4e7 a9bc
00000260: 22d5 62bc 9c9c 43bd 69cd 1d3d 39ee 323b
00000270: 0709 d43c f618 15bd 80af 14ba ca4d e03c
00000280: 2823 10bd 50d2 51bc 7781 8c3c 68b9 1e3d
00000290: 20be e2bc f427 c53c 820c df3c 6434 c73c
000002a0: 8b71 a9bc e6c2 13bd 00c2 09ba dfba 023d
000002b0: 4a9d 03bd 2a8e 98bc d935 1b3d f42e 0fbc
000002c0: 60e7 f0bc c830 febc d133 5a3c 4ab0 133b
000002d0: cbe1 163d 3fd6 a03b a2d7 3abd 33fb d7bb
000002e0: 718e f8bc 65df 003d afa0 1d3c d3b0 a53c
000002f0: 43a5 323d 9f1e 7bbc 790c b73c 7238 07bd
00000300: 5816 edbc 6694 6cbc 59a3 68bc d87c 1ebd
00000310: dd80 dabc 9add 22bd 00df fcbb 4f4b 883b
00000320: f8a3 333c 3467 fcbc 5b75 0dbd c0b1 793a
00000330: 525a 39bd 6685 e93c 4052 123c a1d8 ebbc
00000340: 157e 28bd 5e60 46bb f4df ed3c 1e17 f53c
00000350: f379 ad3c 7cb7 853c ea6f 9e3c 6e14 133b
00000360: e584 583c 3bb3 15bd 6447 29bd f9af 023d
00000370: d20b 2b3c d45f 49bd fbd6 1a3d 9632 993c
00000380: d0f2 15bd 2eed 65bc bf68 063d a3f0 ca3b
00000390: cc6f e0bc 162f ae3c b789 fdbc 571b 0bbd
000003a0: 2b04 28bd 763b 013d ab71 17bd 613b a83c
000003b0: d913 ffbc cdf0 263d fe8e 3bbc 8406 0fbd
000003c0: 9c41 bcbc 1555 afbb fa20 533c 1214 b9bc
000003d0: 455c 08bd 5da4 233d 16b3 fabc 7ade 48bd
000003e0: 3780 8abb d686 3cbd 2c8a 833b a75a 22bd
000003f0: cd0f 7aba 0953 d03b 8ce1 2abd 4290 afbc

net.2.bias f4 [128]
0.02025256 -0.001508175 -0.045813434 -0.004164567 -0.051111847 -0.029237267 -0.027774679 444.40448
-0.027954707 0.0036271967 -0.01242755 444.3369 -0.014504736 -0.039914455 -0.03510438 0.03179593
-0.028472994 444.0563 443.96387 444.09628 -0.0125272535 0.0057336334 -0.038047664 -0.028535306
444.3024 0.004635708 -0.036394544 -0.016961824 444.3286 -0.022488061 444.10907 0.014140791
-0.032761104 -0.010544478 -0.020574702 444.0403 444.18115 0.0030069568 0.006664647 443.9514
443.94186 -0.0043610972 -0.034945164 0.025552768 444.09192 0.002786007 0.015707392 444.07703
444.07816 0.0047109635 -0.031743135 -0.04645939 -0.028039424 0.015411078 444.07477 0.0052773366
-0.024281146 444.50333 -0.046122637 444.0658 444.1563 0.015340441 0.012327195 0.020853672
-0.009264048 -0.023158742 -0.023571754 444.27832 -0.02776196 -0.017046683 0.02946562 -0.04297578
0.008922101 0.013212794 -0.021341536 0.03364879 444.32062 444.07748 0.01700641 -0.021630844
-0.043613516 0.009376903 443.94992 444.21042 -0.022769962 -0.035443194 -0.03477825 -0.028550522
0.017894495 -0.044217665 -0.04376118 444.10333 -0.006962476 444.2184 444.0941 0.0015038339
0.01462864 0.011165505 -0.019419042 0.0065862196 -0.015188599 444.64917 -0.013910141 443.95032
-0.012554646 -0.03720294 -0.022441551 444.12543 -0.023724532 -0.037061892 443.95456 -0.03811103
-0.0154859545 -0.008735926 -0.0121039115 -3.2167613e-05 0.0014459539 -0.015741363 444.12094 0.0039081452
-0.013562006 444.4021 444.0358 -0.0019933684 444.40076 -0.016854113 444.44742 0.012087159
00000000: b2e8 a53c f5ad c5ba dea6 3bbd ec76 88bb
00000010: a85a 51bd fe82 efbc b987 e3bc c633 de43
00000020: 4501 e5bc 43b6 6d3b ec9c 4bbc 202b de43
00000030: 46a5 6dbc 577d 23bd 9cc9 0fbd 733c 023d
00000040: 3240 e9bc 3507 de43 60fb dd43 530c de43
00000050: 1c3f 4dbc 34e1 bb3b ded7 1bbd e0c2 e9bc
00000060: b526 de43 23e7 973b 7212 15bd 86f3 8abc
00000070: 102a de43 e238 b8bc f60d de43 c7ae 673c
00000080: 8230 06bd bfc2 2cbc 478c a8bc 2905 de43
00000090: 3017 de43 5d10 453b 1c63 da3b c7f9 dd43
000000a0: 8ff8 dd43 89e7 8ebb a922 0fbd 0a54 d13c
000000b0: c40b de43 7195 363b caac 803c dc09 de43
000000c0: 010a de43 6d5e 9a3b 1705 02bd 344c 3ebd
000000d0: efb2 e5bc bf7e 7c3c 9209 de43 82ed ac3b
000000e0: 41e9 c6bc 6d40 de43 17eb 3cbd 6c08 de43
000000f0: 0214 de43 7956 7b3c 01f8 493c 52d5 aa3c
00000100: 3cc8 17bc 67b7 bdbc 8d19 c1bc a023 de43
00000110: 0d6d e3bc 7ca5 8bbc e261 f13c 5f07 30bd
00000120: 012e 123c 7a7a 583c 72d4 aebc 50d3 093d
00000130: 0a29 de43 eb09 de43 0751 8b3c 2b33 b1bc
00000140: 16a4 32bd 95a1 193c 97f9 dd43 ef1a de43
00000150: 1288 babc e22c 11bd a373 0ebd c9e2 e9bc
00000160: 7a97 923c 951d 35bd ec3e 33bd 3a0d de43
00000170: 7b25 e4bb f51b de43 0b0c de43 4b1c c53a
00000180: f7ac 6f3c 86ef 363c af14 9fbc 37d1 d73b
00000190: 9ad9 78bc 1853 de43 5ce7 63bc a4f9 dd43
000001a0: 00b2 4dbc 1c62 18bd 58d7 b7bc 0e10 de43
000001b0: f359 c2bc 36ce 17bd 2ffa dd43 501a 1cbd
000001c0: cdb8 7dbc 2121 0fbc 7c4f 46bc b6eb 06b8
000001d0: 2986 bd3a 08f4 80bc 7b0f de43 e60f 803b
000001e0: 2d33 5ebc 7833 de43 9504 de43 2ca3 02bb
000001f0: 4c33 de43 a311 8abc 4539 de43 3809 463c

net.4.weight f4 [26, 128]
0.025201894 0.04587429 0.019145325 -0.077404045 0.00972919 -0.038721066 -0.02677977 178.27423
-0.06876477 -0.05685067 0.028016336 178.43713 -0.053410683 -0.055366494 0.02267126 0.08527034
0.018136367 178.43929 178.33092 178.40353 -0.02822294 0.043673772 0.026502954 0.04045839
178.42528 0.01230339 -0.017763086 -0.08282019 178.3201 -0.017426468 178.35248 -0.0011721328
0.010088757 -0.056061544 -0.054476593 178.38927 178.39026 0.02094774 0.017719418 178.4265
178.31343 -0.07192221 -0.043219466 -0.034907643 178.44005 -0.07982025 -0.05419271 178.33087
178.29091 -0.0016526765 0.007840835 0.061197426 -0.06414896 0.09081619 178.39131 0.030287638
0.014777973 178.43568 -0.009017073 178.43085 178.40332 -0.048901692 0.039450154 -0.0296739
-0.0052181003 -0.004567936 0.034884058 178.43747 -0.063025355 -0.020756729 0.011854887 0.0044666827
-0.06742869 0.005002208 0.0457078 0.0032142773 178.39377 178.4174 0.06265988 0.075646065
-0.053055167 0.05211667 178.4233 178.36116 0.05342502 0.05861222 -0.07730659 0.08654421
-0.07812151 0.004895717 0.050183542 178.401 0.06308035 178.36896 178.4032 -0.0021091104
-0.042990718 -0.056795057 0.0490785 0.045376115 0.045429014 178.48265 0.01000949 178.37898
0.019122481 -0.032729555 0.029092431 178.47307 -0.04042026 -0.013664409 178.40636 0.087596126
0.011788676 -0.0074263066 -0.078156725 -0.04088492 -0.02919746 0.044139273 178.41216 -0.015972875
-0.08809866 178.34369 178.44196 -0.044764526 178.46614 0.04886871 178.36183 0.084369965
-0.015072271 0.061851643 -0.077279046 -0.06453935 -0.073762506 -0.01764027 -0.06350202 32.277107
0.06307281 -0.00954628 0.04925131 32.316235 0.0747764 0.054213263 -0.08592491 0.072253875
0.061154492 32.43341 32.306854 32.33544 0.032993786 0.047955878 -0.02467069 -0.08001142
32.431034 -0.012822367 0.0065220594 -0.031909432 32.38902 0.040224247 32.33277 -0.016683675
-0.07897051 -0.050121453 -0.06809833 32.356438 32.452236 0.0006759167 0.048652492 32.29722
32.45316 0.03326729 -0.07654724 0.03055378 32.417755 -0.0019398332 0.008874923 32.26924
32.391197 -0.07198379 0.054207437 -0.017886996 -0.008078173 0.07627291 32.389297 0.07045639
0.05634076 32.422935 -0.029044595 32.42229 32.303158 0.071968295 0.06584335 0.051701047
-0.050161768 -0.0745773 -0.07084301 32.325027 0.00782261 0.0058755055 0.011640675 0.016248614
0.017322741 0.07784105 -0.052277748 -0.06730034 32.30283 32.345867 0.063343145 -0.0019250438
0.03301038 -0.06710462 32.445896 32.35802 0.035270527 0.010363087 -0.08411245 -0.028231896
0.065862305 -0.04305977 -0.047479153 32.31823 -0.053476878 32.29038 32.39924 0.011913858
-0.050048526 -0.077221036 0.08395483 -0.029403452 -0.028334789 32.437847 -0.051163238 32.31046
0.0012811571 0.05989573 0.04515148 32.433304 -0.064510584 -0.07174367 32.356113 -0.087113984
0.05544237 0.017041057 -0.022723876 -0.003803961 0.028067062 0.045134 32.384907 -0.06379613
-0.003800474 32.31454 32.41167 0.029149994 32.30002 0.024018526 32.28392 -0.013631806
00000000: 3474 ce3c aee6 3b3d a8d6 9c3c 0386 9ebd
00000010: 2e67 1f3c fb99 1ebd 4061 dbbc 3446 3243
00000020: 8bd4 8cbd 40dc 68bd 8482 e53c e86f 3243
00000030: 29c5 5abd fac7 62bd 14b9 b93c 37a2 ae3d
00000040: b892 943c 7570 3243 b754 3243 4e67 3243
00000050: cc33 e7bc 45e3 323d b91c d93c b2b7 253d
00000060: df6c 3243 2894 493c e483 91bc a29d a9bd
00000070: f251 3243 f4c1 8ebc 3c5a 3243 40a2 99ba
00000080: 504b 253c caa0 65bd d922 5fbd a763 3243
00000090: e863 3243 989a ab3c 5028 913c 2f6d 3243
000000a0: 3d50 3243 f44b 93bd e506 31bd 51fb 0ebd
000000b0: a770 3243 cd78 a3bd 2df9 5dbd b454 3243
000000c0: 794a 3243 9f9e d8ba d876 003c 27aa 7a3d
000000d0: 8860 83bd d7fd b93d 2d64 3243 c81d f83c
000000e0: 501f 723c 896f 3243 58bc 13bc 4c6e 3243
000000f0: 4067 3243 244d 48bd 7c96 213d ae16 f3bc
00000100: 99fc aabb a0ae 95bb 96e2 0e3d fe6f 3243
00000110: 7013 81bd 040a aabc 003b 423c 405d 923b
00000120: 0e18 8abd 90e9 a33b 1a38 3b3d a0a6 523b
00000130: ce64 3243 db6a 3243 d353 803d 53ec 9a3d
00000140: 6050 59bd 4a78 553d 5d6c 3243 755c 3243
00000150: 32d4 5a3d 5e13 703d eb52 9ebd 173e b13d
00000160: 2cfe 9fbd 406c a03b 428d 4d3d a866 3243
00000170: 4530 813d 745e 3243 3867 3243 0039 0abb
00000180: 0917 30bd efa1 68bd 8a06 493d 4edc 393d
00000190: c613 3a3d 8f7b 3243 d8fe 233c 0561 3243
000001a0: c0a6 9c3c 6d0f 06bd 4053 ee3c 1b79 3243
000001b0: b78f 25bd afe0 5fbc 0768 3243 9965 b33d
000001c0: 4a25 413c 6058 f3bb a210 a0bd f276 27bd
000001d0: 832f efbc 62cb 343d 8369 3243 8cd9 82bc
000001e0: 126d b4bd fc57 3243 2471 3243 025b 37bd
000001f0: 5577 3243 8e2a 483d a15c 3243 29ca ac3d
00000200: b0f1 76bc 2658 7d3d 7a44 9ebd 352d 84bd
00000210: cc10 97bd 5482 90bc 590d 82bd c21b 0142
00000220: 512c 813d 0068 1cbc bebb 493d d343 0142
00000230: 5f24 993d ba0e 5e3d 66f9 afbd d7f9 933d
00000240: 227d 7a3d d0bb 0142 383a 0142 7e57 0142
00000250: 7e24 073d 626d 443d 301a cabc 07dd a3bd
00000260: 61b9 0142 e814 52bc 00b7 d53b 77b3 02bd
00000270: 5b8e 0142 2ec2 243d c254 0142 34ac 88bc
00000280: 4abb a1bd 274c 4dbd 2377 8bbd fe6c 0142
00000290: 17cf 0142 0030 313a d647 473d 5a30 0142
000002a0: 09d0 0142 4843 083d cdc4 9cbd ec4b fa3c
000002b0: c8ab 0142 0042 feba 2068 113c b413 0142
000002c0: 9690 0142 3d6c 93bd 9e08 5e3d c087 92bc
000002d0: 505a 04bc f934 9c3d a48e 0142 714b 903d
000002e0: 92c5 663d 16b1 0142 eeee edbc 6db0 0142
000002f0: 6f36 0142 1d64 933d e1d8 863d 7ac4 533d
00000300: 6d76 4dbd fcbb 98bd 2416 91bd d44c 0142
00000310: 682a 003c 5087 c03b 88b8 3e3c d01b 853c
00000320: 6ce8 8d3c 216b 9f3d 3121 56bd c3d4 89bd
00000330: 1936 0142 2b62 0142 0dba 813d c051 fcba
00000340: e435 073d 266e 89bd 99c8 0142 9d6e 0142
00000350: d477 103d f0c9 293c 2643 acbd 9446 e7bc
00000360: d1e2 863d 715f 30bd 8079 42bd de45 0142
00000370: 920a 5bbd 5929 0142 d298 0142 5832 433c
00000380: afff 4cbd 1026 9ebd 83f0 ab3d 82df f0bc
00000390: 5c1e e8bc 5bc0 0142 8b90 51bd e93d 0142
000003a0: 80ec a73a 3a55 753d c2f0 383d b4bb 0142
000003b0: 201e 84bd 58ee 92bd a96c 0142 d168 b2bd
000003c0: 8a17 633d b099 8b3c 6c27 babc e04b 79bb
000003d0: e5ec e53c 6ede 383d 258a 0142 8ca7 82bd
000003e0: 6011 79bb 1742 0142 8da5 0142 f8cb ee3c
000003f0: 3833 0142 80c2 c43c bc22 0142 f057 5fbc

net.4.bias f4 [26]
222.21988 48.16203 48.665234 48.852577 200.45573 48.00843 49.039227 48.736637
46.990494 66.02771 47.925194 49.695816 48.59398 49.314953 49.19765 47.542233
48.133324 56.667583 230.97755 49.11951 112.4072 47.60918 149.72433 48.065876
48.83037 48.374195
00000000: 4a38 5e43 eba5 4042 33a9 4242 0a69 4342
00000010: ab74 4843 a208 4042 2b28 4442 51f2 4242
00000020: 44f6 3b42 300e 8442 66b3 3f42 84c8 4642
00000030: 3c60 4242 8342 4542 65ca 4442 3f2b 3e42
00000040: 8688 4042 9bab 6242 41fa 6643 617a 4442
00000050: 7dd0 e042 cd6f 3e42 6eb9 1543 7543 4042
00000060: 4d52 4342 2d7f 4142
