dqn_hangman.pt (torch, 997232 bytes, 8 tensors)

net.0.weight f4 [512, 157]
0	0x4141af2d	12.105268
1	0x3f8f93ad	1.1216942
2	0x3f5842f2	0.8447715
3	0x3f4187f3	0.7559807
4	0xbd801a5e	-0.06255029
5	0x3ed0c9f9	0.40779093
6	0x3f3b9994	0.73281217
7	0x40f226ef	7.5672526
8	0x3e08fd24	0.13377815
9	0x3e533495	0.20625527
10	0x3e68833a	0.22706309
11	0x411ec6a5	9.923497
12	0x3f113daa	0.56734717
13	0x3f4559dd	0.77090245
14	0x3fc69916	1.5515468
15	0x3f12bfac	0.5732372
16	0x3ccafcda	0.024778772
17	0x3ea3c895	0.3198897
18	0x41095291	8.582658
19	0x3f5e9c93	0.86957663
20	0xbd07e952	-0.033181496
21	0x3e9af54c	0.30265272
22	0x3f2c21a9	0.6723886
23	0x3ce69c3d	0.028150672
24	0x3ead099e	0.337964
25	0xba96e69f	-0.0011512822
26	0x41a7d69d	20.979792
27	0x3d770abc	0.06031297
28	0x3ed28f6a	0.4112504
29	0x3d4d5011	0.050125185
30	0x3f88d7f2	1.0690901
31	0x3d0e15da	0.034688808
32	0x3db3bbd3	0.08776059
33	0x40f99d57	7.8004565
34	0x3f62a2d2	0.88529694
35	0xbca220ac	-0.01979097
36	0xbcd23c8e	-0.02566364
37	0x41366c5b	11.401454
38	0x3e1b4329	0.15162338
39	0x3f448131	0.7675963
40	0x40c65a99	6.1985593
41	0xbb1674a2	-0.0022957702
42	0xbcecd6c8	-0.02891101
43	0x3f556a53	0.8336536
44	0x3f9cb5ca	1.2242978
45	0x3ed7db33	0.42159423
46	0x3f8a129f	1.0786933
47	0x3c275115	0.010212203
48	0x3e766b04	0.2406426
49	0x3c214ccc	0.00984497
50	0x3e43fd45	0.19139583
51	0x3deaf8f2	0.11473264
52	0x418d5939	17.668566
53	0x3e4384a8	0.19093573
54	0x3ef6ee05	0.4822847
55	0x3efd46a2	0.4946795
56	0x3f397971	0.7245093
57	0x3dfa52a3	0.12222793
58	0x3e7d40b7	0.24731718
59	0x402232d1	2.5343516
60	0x3f888306	1.0664985
61	0xbcf8dbc0	-0.030378222
62	0x3da4fad5	0.08055655
63	0x413fdc94	11.991352
64	0x3f1baacd	0.60807496
65	0x3fb9f76c	1.4528632
66	0x4089248d	4.285712
67	0x3e9f3243	0.31093034
68	0xbca0db35	-0.019635776
69	0x3f9c7ed8	1.222621
70	0x4083221c	4.0979137
71	0x3f28d652	0.65952027
72	0xbe092e6b	-0.13396613
73	0x3e81daa1	0.25362113
74	0x3f18d3d8	0.5969825
75	0x3ea25f19	0.3171318
76	0x3eb116a1	0.34587577
77	0x3e23f630	0.16011882
78	0x4166c06d	14.421979
79	0xbc362702	-0.011117699
80	0x3b6ceeb9	0.0036153032
81	0x3f0282c2	0.5098077
82	0x3fd754ae	1.6822717
83	0x3e15e8f1	0.14639641
84	0x3ecce522	0.40018564
85	0x4065c1c6	3.589952
86	0x3f5ec5a6	0.8702034
87	0xbcc21302	-0.023690704
88	0x3f0a3e75	0.5400155
89	0x41343dd1	11.265092
90	0x3ee9ec4e	0.456881
91	0x3ffe9fa5	1.989247
92	0x40507794	3.2572985
93	0x3f07c6f2	0.5303794
94	0xbd05a779	-0.032630417
95	0x3f2e67b4	0.6812699
96	0x409e7102	4.951295
97	0x3f82202e	1.016607
98	0x3d0401a8	0.032228142
99	0xbb201c46	-0.0024430915
100	0x3e8d17b7	0.27557155
101	0xbc8a134d	-0.016854906
102	0x3d155299	0.036455724
103	0x3bc3a2b6	0.0059703244
104	0x41138ab8	9.221367
105	0xbd7b5106	-0.061356567
106	0x3e525f50	0.20544171
107	0x3f5ffae0	0.8749218
108	0x3f80bcf0	1.0057659
109	0x3e10b603	0.14131932
110	0x3c824844	0.0159036
111	0x40a17977	5.0460773
112	0x3e035d98	0.12828672
113	0xbc72d3e8	-0.01482103
114	0x3eb0c641	0.34526256
115	0x410ccc13	8.799823
116	0x3e1b80b5	0.15185817
117	0x3f2a2f19	0.66478115
118	0x3fba18d8	1.4538832
119	0x3ea48f3a	0.32140523
120	0x3cb0542c	0.021524511
121	0x3f84b8be	1.0368879
122	0x416cb53e	14.794249
123	0x3f44d5c0	0.76888657
124	0x3db94abf	0.0904746
125	0x3d176fd6	0.03697189
126	0x3da42328	0.08014518
127	0x3db549ef	0.08851992
128	0x3f920af2	1.140959
129	0x3dc1ed04	0.09469035
130	0x423c05d5	47.005695
131	0x4045c809	3.0903342
132	0x40648b9c	3.571021
133	0x4056023f	3.343887
134	0x4092b538	4.5846214
135	0x4055c91a	3.3403993
136	0x40724fcf	3.7861211
137	0x41f0aa34	30.083107
138	0x40587abc	3.382491
139	0x404bfd8f	3.187351
140	0x40691915	3.642156
141	0x421d21b3	39.28291
142	0x407e2e9e	3.9715953
143	0x40bd6c82	5.9194956
144	0x4144796a	12.279642
145	0x40806d8c	4.0133724
146	0x406841af	3.629009
147	0x4084ee8f	4.154121
148	0x41a5c706	20.72218
149	0x407a80cc	3.9141111
150	0x4067dc7a	3.6228318
151	0x40459d4a	3.0877252
152	0x40505d29	3.255686
153	0x4080f597	4.029979
154	0x4046dc98	3.107214
155	0x402f1cd7	2.7361352
156	0x42817cd6	64.74382
157	0x41448cc3	12.284366
158	0x3f90c8ef	1.131132
159	0x3f77ca2b	0.9679286
160	0x3f29808d	0.6621178
161	0x3d819a51	0.06328262
162	0x3ee48c84	0.44638455
163	0x3f4b5695	0.7942899
164	0x40f3341e	7.600112
165	0x3e1ce395	0.1532119
166	0x3e291007	0.1651002
167	0x3ecb54f4	0.39713252
168	0x4122ef38	10.183403
169	0x3f1ef88b	0.62097996
170	0x3f37aefb	0.71751374
171	0x3fd6010c	1.671907
172	0x3f37b17b	0.7175519
173	0x3d08fe86	0.033445857
174	0x3ec45ae4	0.38350594
175	0x410f1110	8.941666
176	0x3f5ec798	0.87023306
177	0xbe356ec7	-0.1771804
178	0x3e9380c9	0.28809193
179	0x3f0eca10	0.5577707
180	0xbbe0e885	-0.006863656
181	0x3e5b75d2	0.21431664
182	0xbc36143a	-0.011113221
183	0x41aa731d	21.306208
184	0x3de385ff	0.11109542
185	0x3e9d2423	0.30691633
186	0x3d85a4d4	0.06525579
187	0x3f8930ab	1.0717977
188	0xbcebd47a	-0.02878784
189	0x3d84bfa4	0.06481865
190	0x40faf075	7.8418527
191	0x3f651456	0.89484155
192	0x3dba251a	0.09089108
193	0x3c524d08	0.0128357485
194	0x4137b7b7	11.482352
195	0x3e6097f6	0.21932968
196	0x3f4a61ae	0.790553
197	0x40c7ed82	6.2477427
198	0x3ce47aa7	0.027890516
199	0xbcb90b3e	-0.022588369
200	0x3f59a20a	0.85012877
201	0x3fac44bf	1.345848
202	0x3ecf65bb	0.40507302
203	0x3f892849	1.0715419
204	0xbd566b91	-0.052348677
205	0x3e68b794	0.2272628
206	0xbb7001af	-0.0036622097
207	0x3e03a877	0.12857233
208	0x3dfa1f43	0.12212994
209	0x4190f809	18.12111
210	0x3e2c28f1	0.16812493
211	0x3f0c9e57	0.5492911
212	0x3ed5c1a1	0.4174929
213	0x3f3dd4a7	0.74152607
214	0x3e708c98	0.23491132
215	0x3e815773	0.2526203
216	0x4020a684	2.5101633
217	0x3f81adf2	1.0131209
218	0x3c3f3a63	0.011671635
219	0x3e354a3e	0.17704102
220	0x41426196	12.148825
221	0x3f1ab7da	0.60436785
222	0x3fb44898	1.4084654
223	0x408cac94	4.3960667
224	0x3e724b55	0.2366155
225	0xbcee09ec	-0.029057465
226	0x3f9b9eac	1.2157798
227	0x40812476	4.035701
228	0x3f259eee	0.6469563
229	0xbd222171	-0.039582673
230	0x3e0acc9d	0.13554616
231	0x3ef57651	0.4794183
232	0x3ea67a2b	0.32515082
233	0x3e987e6f	0.2978396
234	0x3df84159	0.12121839
235	0x416aefc6	14.683538
236	0x3db7bf83	0.08972075
237	0x3d475f04	0.0486746
238	0x3f02a44f	0.51031965
239	0x3fd65210	1.6743793
240	0x3dd0687d	0.101761796
241	0x3e96f58d	0.29484215
242	0x40656a78	3.5846233
243	0x3f44037c	0.76567817
244	0xbd5e7b6a	-0.054316916
245	0x3f0ecc63	0.5578062
246	0x4136afd4	11.417927
247	0x3ee19352	0.4405771
248	0x4007d275	2.1222203
249	0x40556a4e	3.3346133
250	0x3f11ed1b	0.5700242
251	0xbd84bc0d	-0.0648118
252	0x3f2697e5	0.6507552
253	0x409dd659	4.9324155
254	0x3f83ee59	1.0307113
255	0xbd0c31bd	-0.03422712

net.0.bias f4 [512]
0	0x425bc542	54.942635
1	0x425f02a8	55.752594
2	0x425f3543	55.802013
3	0x425c0d87	55.01321
4	0x425f4a6b	55.822674
5	0x425f633c	55.84691
6	0x425f28af	55.78973
7	0x425f5b75	55.839314
8	0x425efb4d	55.74541
9	0x425f7ccb	55.87187
10	0x425f40ba	55.81321
11	0x425f0db2	55.763374
12	0x425f6a4f	55.853817
13	0x425efcaa	55.746742
14	0x425eb3e5	55.67568
15	0x425f5295	55.830647
16	0x425ee971	55.72797
17	0x425f3673	55.803173
18	0x425db4c3	55.426525
19	0x425f68d0	55.852356
20	0x425f248c	55.78569
21	0x425f66d6	55.850426
22	0x425e9d02	55.653328
23	0x425f32a3	55.79945
24	0x425f452d	55.817554
25	0x425d870e	55.38189
26	0x425f8587	55.880398
27	0x425f0511	55.754948
28	0x41adcc89	21.72487
29	0x425f1e83	55.779797
30	0x425f70eb	55.86027
31	0x425f8fcf	55.890438
32	0x425cd36d	55.20647
33	0x425ea973	55.665478
34	0x425f1118	55.766693
35	0x425f5557	55.83334
36	0x425f2583	55.786633
37	0x425f54c8	55.832794
38	0x425f1d96	55.778893
39	0x425f0f23	55.764782
40	0x425f6818	55.851654
41	0x425f5b15	55.838947
42	0x425efd11	55.747135
43	0x425f69e5	55.853413
44	0x425f4f52	55.82746
45	0x41dc1202	27.508793
46	0x425f2981	55.79053
47	0x425f8e68	55.88907
48	0x425f67b1	55.85126
49	0xbe0abcfe	-0.13548657
50	0x425f20bb	55.781963
51	0x405aec47	3.4206712
52	0x425f301d	55.796986
53	0x425f8005	55.87502
54	0x425ec49f	55.692013
55	0x425f560d	55.834034
56	0x425f1224	55.767715
57	0x425f5652	55.834297
58	0x425f4564	55.817764
59	0x425f670b	55.850628
60	0x425ef881	55.74268
61	0x425f26f0	55.788025
62	0x425f33d1	55.800602
63	0x42531cdd	52.778187
64	0x425ef624	55.74037
65	0x425ef7a2	55.74183
66	0x425f7d49	55.87235
67	0x425f59cd	55.837696
68	0x425f09da	55.75962
69	0x425f527c	55.83055
70	0x425f7d5a	55.872414
71	0x425f3648	55.80301
72	0x425f77fd	55.867176
73	0x425f4517	55.81747
74	0x425f19fa	55.775368
75	0x425f39ab	55.806316
76	0x425ec3b1	55.691105
77	0x425f3f03	55.811535
78	0x425f372c	55.80388
79	0x425f1ec4	55.780045
80	0x425f171a	55.77256
81	0x425eccfb	55.700176
82	0x425f187d	55.773914
83	0x425f6303	55.84669
84	0x425f08ff	55.758785
85	0x425f23bf	55.78491
86	0x425f15ed	55.77141
87	0x425f8ad9	55.885593
88	0x425f6e0e	55.857475
89	0x425f5aaf	55.83856
90	0x425f029c	55.75255
91	0x425f5477	55.832485
92	0x425f6923	55.852673
93	0x425f6199	55.84531
94	0x425f0dd5	55.763508
95	0x425ed43f	55.70727
96	0x425f1454	55.76985
97	0x425f38e4	55.805557
98	0x425f602f	55.84393
99	0x425f78b2	55.867867
100	0x425f0753	55.757153
101	0x425f62b5	55.846394
102	0x4250cc41	52.199467
103	0x425f5f70	55.8432
104	0x425f613f	55.844967
105	0x425f223a	55.783424
106	0x425f8432	55.879097
107	0x425f5a96	55.838463
108	0x425f1719	55.772556
109	0x425f01cb	55.75175
110	0x425f8c43	55.886974
111	0x425f10f7	55.766567
112	0xbce5155c	-0.027964287
113	0x425f4213	55.814526
114	0x425f7975	55.86861
115	0x425f3f53	55.81184
116	0x425f4ad3	55.82307
117	0x425ef147	55.735622
118	0x425f8feb	55.890545
119	0x425f25c3	55.786877
120	0xbdfdba07	-0.123889975
121	0x425f6b17	55.85458
122	0x425f0f3e	55.764885
123	0x425f7374	55.862747
124	0x425f0596	55.755455
125	0x425ee5f8	55.72458
126	0x425f4e0c	55.826218
127	0x425f416e	55.813896
128	0x425f53fd	55.83202
129	0x425f85dc	55.880722
130	0x425f3cff	55.809566
131	0x425f7625	55.865376
132	0x425f5c3d	55.840076
133	0x425f820b	55.876995
134	0x425f6bfa	55.855446
135	0x425f017c	55.75145
136	0x3e9e3506	0.3089983
137	0x425f4eec	55.827072
138	0x424da751	51.413395
139	0x425ee24a	55.720985
140	0x425ee74c	55.725876
141	0x425f1653	55.7718
142	0x425f5a7e	55.83837
143	0x425f7777	55.866665
144	0x425f4ee2	55.827034
145	0x425f755d	55.864613
146	0xbe0ea8ff	-0.13931654
147	0x425ebdb0	55.68524
148	0x425e1803	55.52345
149	0x425f2b2e	55.792168
150	0x425f3caf	55.80926
151	0x425f08c3	55.758556
152	0x425f3339	55.800022
153	0x425b682a	54.851723
154	0x425f64a6	55.84829
155	0x425f2074	55.781693
156	0x425f7c4d	55.871387
157	0x425f230a	55.784218
158	0x425f157a	55.770973
159	0x425ef90a	55.743202
160	0x425f46de	55.819206
161	0x425ec615	55.69344
162	0x425f1f24	55.78041
163	0x425f7dd1	55.872868
164	0x425eee36	55.732628
165	0x42442868	49.03946
166	0x425f17ae	55.773125
167	0x425ee160	55.720093
168	0x425eafa5	55.671528
169	0x425f21af	55.782894
170	0x425f1b02	55.776375
171	0x425f7629	55.86539
172	0x425ee869	55.726963
173	0x425f686a	55.851967
174	0x425f737b	55.862774
175	0x425f0609	55.755894
176	0x425f29ff	55.79101
177	0x425f1b81	55.77686
178	0xbe47498c	-0.1946165
179	0x425f7231	55.861515
180	0x425f0d9b	55.763287
181	0x425efc4c	55.746384
182	0x425efaa3	55.744762
183	0x425ef2d3	55.737133
184	0x425f438b	55.81596
185	0x425f7f22	55.874153
186	0x425da07d	55.406727
187	0x425f6cef	55.85638
188	0x425f48b3	55.820995
189	0x425eec8a	55.730995
190	0x425f1d95	55.77889
191	0x425f103a	55.765846
192	0x425f6a05	55.853535
193	0x425ee5ea	55.724525
194	0x425f6419	55.84775
195	0x425ecfc3	55.702892
196	0x425f7673	55.865673
197	0x425f9f31	55.90546
198	0x425e67c3	55.60133
199	0x425f1cae	55.778008
200	0x425ef51a	55.739357
201	0x425f06f6	55.756798
202	0x425f82c9	55.87772
203	0x425f580f	55.835995
204	0x425f5350	55.83136
205	0x425f3d5e	55.80993
206	0x425f94a6	55.895164
207	0x425ee65d	55.724964
208	0x425ef49b	55.738873
209	0x425e0316	55.503014
210	0x425f8e8e	55.889214
211	0x425f8e56	55.889
212	0x425f2bd8	55.792816
213	0x425f68a9	55.852207
214	0xbd42e508	-0.047581702
215	0x425f66cb	55.850384
216	0x425f01ac	55.751633
217	0x425f7810	55.86725
218	0x425f7edc	55.873886
219	0x425f6086	55.84426
220	0x425ea3e0	55.660034
221	0x425efb48	55.74539
222	0x425f3bdf	55.808468
223	0x425f5f10	55.842834
224	0x425e9cbb	55.653057
225	0x425f161b	55.771587
226	0xbe187a85	-0.14890487
227	0x425f4859	55.820652
228	0x425f5618	55.834076
229	0x425f3e57	55.81088
230	0x425f262a	55.78727
231	0x425eff93	55.749584
232	0x425f1ac9	55.776157
233	0x425eef9f	55.734005
234	0x425f7c31	55.87128
235	0x425f6b66	55.85488
236	0x425ef6e8	55.74112
237	0x425e3f75	55.56197
238	0x425f6fa3	55.85902
239	0x425f8c19	55.886814
240	0x425f6717	55.850674
241	0x425f5ac9	55.838657
242	0x425f7854	55.867508
243	0x425f2e2a	55.795082
244	0x425f316a	55.798256
245	0x425f49bc	55.822006
246	0x425d8763	55.382214
247	0x425f1f52	55.780586
248	0x425f3d05	55.80959
249	0x424d8ccd	51.3875
250	0x425f3293	55.79939
251	0x425f0fe1	55.765507
252	0x425f6e62	55.857796
253	0x425f41b1	55.81415
254	0x425f8b3c	55.88597
255	0x425c72d6	55.112144

net.2.weight f4 [256, 512]
0	0x3cf01a52	0.029309426
1	0xbcfc7e36	-0.0308219
2	0x3cb940f6	0.022613984
3	0x3d220f9f	0.03956568
4	0xbc231dbe	-0.009955822
5	0x3c8faeb5	0.017539361
6	0x3d0ade73	0.03390355
7	0x3be5c1d0	0.0070116296
8	0x3ce8a7f5	0.0284004
9	0xbbc130bd	-0.0058957026
10	0x3caea4ee	0.021318879
11	0x3c53f7f8	0.012937538
12	0xbcf3aaff	-0.029744623
13	0xbd008699	-0.031378362
14	0xbd2e335e	-0.042529456
15	0xbce15bcc	-0.027509592
16	0xbcdf8a5c	-0.027287655
17	0xbcb87626	-0.022517275
18	0xbd0dd5cc	-0.03462772
19	0xbb029c25	-0.0019929495
20	0x3d035c9f	0.032070752
21	0x3caa0c4e	0.02075782
22	0xbc4d7a78	-0.012541406
23	0xbd253e76	-0.04034277
24	0x3c78196d	0.015142781
25	0xbc4243bc	-0.011856969
26	0xb8480ea2	-4.7697344e-05
27	0x3ce07eea	0.027404267
28	0xbcf2e5ee	-0.029650655
29	0x3cfd619a	0.03093033
30	0x3ca2933b	0.019845596
31	0xbc2bedec	-0.010493737
32	0x3c807fc2	0.01568592
33	0xbc84b6ec	-0.016200505
34	0xbd4fe8bb	-0.05075906
35	0xbd28d5d2	-0.04121954
36	0xbd1b90f9	-0.037980054
37	0x3cfc24a6	0.030779194
38	0x3d168cdc	0.036755428
39	0xbc2cb15f	-0.010540335
40	0xbd4acadd	-0.04950987
41	0x3c3be167	0.011467314
42	0xbd15b14b	-0.036546033
43	0xbc9485b7	-0.018130166
44	0xbc3efb82	-0.011656644
45	0xbca7fc61	-0.020506086
46	0xbb5d8817	-0.003380304
47	0x3c2762df	0.010216444
48	0xbcd4b663	-0.025965875
49	0x3c2392bc	0.009983715
50	0xbc963675	-0.018336514
51	0x3d2d91fd	0.042375553
52	0x3ac31a80	0.0014885217
53	0x3cadeb36	0.021230321
54	0x3cc08096	0.023498815
55	0xbcc70680	-0.024295092
56	0x3c400234	0.011719275
57	0x3c6f1378	0.014592044
58	0x3d04a991	0.032388274
59	0xbce30969	-0.027714448
60	0x3afb28c0	0.0019161925
61	0xbcd245f8	-0.02566813
62	0x3cd086b6	0.02545486
63	0xbd1a00e3	-0.037598502
64	0x3cbacf86	0.022804033
65	0xbc080e7e	-0.008304236
66	0xbd04c7a9	-0.032416973
67	0xba2087ba	-0.00061237405
68	0x3d307b41	0.043086294
69	0xbcbd4305	-0.023103246
70	0x3b8ef0ab	0.004362186
71	0x3cb7e1ea	0.022446591
72	0xbcd03ab1	-0.025418611
73	0x3d24b515	0.040211756
74	0xbd4fd6af	-0.050741848
75	0x3b5c3bfc	0.003360509
76	0xbd0626fa	-0.032752015
77	0x3d2048b5	0.03913184
78	0x3d270f89	0.0407863
79	0x3b40fba8	0.0029446874
80	0x3cf9af07	0.030478967
81	0x3c8f8b71	0.017522546
82	0xbd06459e	-0.032781236
83	0xbc106683	-0.008813503
84	0x3c2d69ee	0.010584338
85	0x3d04649a	0.032322504
86	0xbc37451c	-0.011185911
87	0xbd3ecbe1	-0.046581153
88	0x3cd15452	0.025552902
89	0x3cae9906	0.021313202
90	0xbc95bb0e	-0.018277671
91	0xbd2a655a	-0.041600563
92	0x3c82945d	0.015939886
93	0xbd172712	-0.036902495
94	0x3c8ed47b	0.017435303
95	0xbc809fa4	-0.015701123
96	0xbcf60b26	-0.030034613
97	0x3cc5352a	0.024073202
98	0xbb951bbe	-0.0045504263
99	0xbd20c23d	-0.03924774
100	0xbd17052a	-0.03687016
101	0x3c191130	0.009342477
102	0x3b7bd290	0.0038425066
103	0x3a12b7a5	0.0005596823
104	0x3cced68c	0.025248788
105	0xbc9ed717	-0.019389672
106	0xbd2b0b98	-0.041759104
107	0xbc1c95f9	-0.009557241
108	0x3cd5c055	0.026092688
109	0x3cd6b931	0.026211353
110	0xbb4de988	-0.0031419713
111	0xbc083900	-0.008314371
112	0x3d008961	0.031381015
113	0xbc87745c	-0.016534977
114	0xbcd286ce	-0.025699046
115	0xbd2dc116	-0.04242047
116	0xbd40b521	-0.047047738
117	0xbb9d17d0	-0.0047940984
118	0xbd14fc32	-0.036373325
119	0x3d1ee101	0.0387888
120	0xbcc1fa79	-0.023679005
121	0x3d0cfc45	0.03442027
122	0xbca557da	-0.020183492
123	0x3cfed692	0.031108174
124	0x3d05664b	0.032568257
125	0x3bcbc14f	0.0062181125
126	0xbc93829c	-0.018006615
127	0xbcdc8db8	-0.026923046
128	0x3c61a53f	0.013772308
129	0x3cd80a5a	0.026372124
130	0x3d0da709	0.034583125
131	0xbbdc4e50	-0.0067232028
132	0xbd25cdc3	-0.040479433
133	0x3b746b4f	0.0037295406
134	0xbc28c160	-0.01030001
135	0x3c6dda84	0.01451743
136	0x3ccc474e	0.024936344
137	0x3c154f25	0.009113108
138	0xbd18fc4d	-0.037349988
139	0xbd2b0ae5	-0.041758437
140	0x3cebcea6	0.028785061
141	0xbd0140fa	-0.031556107
142	0xbcc4e2dd	-0.024033958
143	0x3cb71910	0.022350818
144	0x3d2c4ddd	0.042066444
145	0xbd077b9d	-0.03307687
146	0xbd14bbfa	-0.03631208
147	0x3b815ad0	0.0039475933
148	0xbcf2860a	-0.02960493
149	0xbd32d086	-0.043655895
150	0xbd2398d2	-0.039940663
151	0xbcf0cd4a	-0.029394764
152	0x3b8f40b8	0.0043717287
153	0xbd1fa69f	-0.03897726
154	0x3d1b84a3	0.03796829
155	0xbd3f4133	-0.04669304
156	0x3d2d4b23	0.042307984
157	0x3c427594	0.011868853
158	0x3d067c05	0.032833118
159	0xbc16b188	-0.0091976
160	0x3c147194	0.009060282
161	0xbc303df8	-0.010756962
162	0x3bdab370	0.0066742226
163	0xbacaa818	-0.0015461473
164	0x3926e600	0.00015916675
165	0x3d2e6551	0.04257709
166	0xbccaee98	-0.024771973
167	0xbbd5ba48	-0.0065224506
168	0x3d122559	0.03568015
169	0x3c5fc188	0.013656981
170	0xbbf96d60	-0.0076119155
171	0xbca39b8c	-0.019971631
172	0x3c41f0e8	0.011837222
173	0xbc28ea01	-0.010309697
174	0xbd0370fe	-0.03209018
175	0xbc311b25	-0.010809694
176	0x3cff7306	0.031182777
177	0x3ce58cc2	0.02802122
178	0xbd2bc0a3	-0.04193176
179	0xbc34985a	-0.011022652
180	0xbcecb1b2	-0.028893325
181	0xbd0402dd	-0.032229293
182	0x3d1c836f	0.038211282
183	0x3c8d4682	0.017245535
184	0xbcc1273a	-0.023578275
185	0xbca19217	-0.019722981
186	0x3cba366e	0.022731032
187	0xbcbe9c14	-0.023267783
188	0x3d2a3203	0.0415516
189	0xbc739cc8	-0.0148689225
190	0xbd432431	-0.047641937
191	0xbd06fa1f	-0.032953378
192	0x3caa4842	0.020786408
193	0xbd28c321	-0.041201714
194	0xbbcb2ae9	-0.0062001836
195	0xbc652062	-0.013984771
196	0x3c9375f2	0.018000577
197	0xbb032374	-0.0020010145
198	0x3d2f8e57	0.042860355
199	0xbcc91417	-0.024545712
200	0xbc041068	-0.008060552
201	0x3c9b2f06	0.018943321
202	0xbbefdf21	-0.0073203
203	0x3cc0c8dd	0.02353328
204	0x3cecf7ba	0.028926719
205	0x3c02aa44	0.007975165
206	0x3b20fe40	0.0024565607
207	0xbd047716	-0.03234013
208	0x3c9f976f	0.019481389
209	0xbd2e50b1	-0.042557422
210	0xbd1e6181	-0.038667206
211	0xbb7ad085	-0.003827126
212	0xbd098c5c	-0.033581123
213	0xbd48ebbc	-0.04905294
214	0xbca9ce79	-0.020728337
215	0x3cc430ea	0.023949105
216	0x3d23371b	0.039847475
217	0xbc201162	-0.009769769
218	0xbb5cdfe2	-0.003370278
219	0xbd06152f	-0.032735046
220	0x3cdc7f1f	0.026916085
221	0x3d1db649	0.03850392
222	0x3caf36e2	0.021388475
223	0xbcd7b3db	-0.026330879
224	0x3cfdd12a	0.030983526
225	0xbcb3cb86	-0.021947633
226	0x3d2913d1	0.041278664
227	0xbb523561	-0.0032075273
228	0xbc4068b0	-0.011743709
229	0xbd2d8026	-0.04235854
230	0x3c63252c	0.013863843
231	0x3c2138a9	0.009840169
232	0x3b71dbab	0.0036904614
233	0x3bcdf530	0.006285332
234	0xbd2727b9	-0.040809367
235	0xbcbb83e0	-0.022890031
236	0x3ce38f80	0.027778387
237	0x3d08a801	0.033363346
238	0xbd3de8bc	-0.04636453
239	0xbd4a43d0	-0.049381077
240	0x3d00335f	0.03129899
241	0xbc182db3	-0.009288239
242	0xbd4daf41	-0.050215963
243	0xbd2f0f5c	-0.042739257
244	0x3cfca662	0.030841056
245	0x3cd287f3	0.025699591
246	0x3ca417c2	0.02003086
247	0xbbe9337c	-0.007116733
248	0x3cc62dbc	0.02419173
249	0xbd110820	-0.03540814
250	0x3c88dbc8	0.016706362
251	0xbce31d9f	-0.027724085
252	0x3ba0a110	0.0049020126
253	0x3cacfe3b	0.02111732
254	0x3caedea5	0.0213464
255	0x3bedb888	0.007254664

net.2.bias f4 [256]
0	0xbd080ac4	-0.033213392
1	0xbab0381c	-0.0013444456
2	0x3cd5cb6e	0.02609798
3	0x42593327	54.299953
4	0x3be5ecf0	0.0070167705
5	0x4259a6a2	54.412727
6	0x3be544dc	0.006996734
7	0xbd11838f	-0.035525855
8	0xbd49ee3a	-0.049299456
9	0x3b724051	0.0036964605
10	0x425962ca	54.346474
11	0x3c034daf	0.008014127
12	0x3d016d3c	0.031598315
13	0x42595173	54.32954
14	0x42596902	54.352547
15	0x425935d2	54.30256
16	0x3c869cc1	0.016432168
17	0x3bb83248	0.0056212284
18	0xbc7dcd06	-0.015490776
19	0x3d10fb33	0.035395812
20	0xbcc1ee15	-0.023673097
21	0x425982fe	54.377922
22	0x4259660a	54.349648
23	0x3d0cab8b	0.034343284
24	0xbd28256b	-0.04105131
25	0x3cb5699b	0.022145083
26	0x3b515f05	0.0031947505
27	0xbc8ce31b	-0.017198136
28	0xbb825432	-0.003977322
29	0x39d5e413	0.00040796454
30	0x42597073	54.359814
31	0xbce2237c	-0.02760481
32	0xbd2e30be	-0.042526953
33	0x42597bc9	54.370884
34	0x3c6dd51e	0.014516143
35	0x425975d9	54.365086
36	0xbd192ead	-0.03739803
37	0xbd37e998	-0.044900507
38	0xbc32b230	-0.010906741
39	0x4259316e	54.29827
40	0x3c62fdc1	0.013854445
41	0x3d045d0b	0.032315295
42	0xbcea96f1	-0.028636428
43	0xbd0b0470	-0.03393978
44	0x42598ee7	54.389553
45	0x42598ab3	54.38545
46	0x3bad7b1e	0.0052942177
47	0xbceaaf1f	-0.028647957
48	0x3ce5781f	0.02801138
49	0x3cd2b50b	0.025721094
50	0x4259933e	54.39379
51	0xbd34b502	-0.044117935
52	0xbcbdae67	-0.02315445
53	0xbcb73aec	-0.022366963
54	0xbb8ca83e	-0.004292517
55	0x3c75f356	0.015011629
56	0x42599812	54.398506
57	0xbd2c5028	-0.04206863
58	0x425950fa	54.32908
59	0xbc7581bf	-0.014984547
60	0x425954b8	54.332733
61	0xbc4a0aef	-0.012331708
62	0x42594260	54.31482
63	0x3cef9476	0.029245596
64	0x42594cf3	54.325146
65	0x3ce1f1f9	0.027581202
66	0x42597ee8	54.37393
67	0xbca53079	-0.020164715
68	0x4259809b	54.37559
69	0xbc85073d	-0.016238803
70	0x42593d3c	54.3098
71	0x3b76579f	0.0037588847
72	0xbcdabff1	-0.026702853
73	0xbd08eaa3	-0.033426892
74	0xbd3155e2	-0.043294795
75	0x42598ba8	54.386383
76	0x425973c7	54.363064
77	0x3d0956e5	0.033530135
78	0xbd189b20	-0.037257314
79	0x3c8aead4	0.016957678
80	0x42594136	54.313683
81	0x3bae477f	0.0053185816
82	0x3bcc0540	0.006226212
83	0xbba66c5a	-0.0050788345
84	0xbd247ea6	-0.040159844
85	0xbc703e56	-0.0146633
86	0x3c4b9165	0.0124248015
87	0xbd2040d5	-0.03912433
88	0xbc8dc24d	-0.017304564
89	0x3c9c89e6	0.019108724
90	0xbcfe49c9	-0.031041043
91	0x3bba1f75	0.0056800195
92	0x42593162	54.298225
93	0xbcacb056	-0.021080177
94	0xbcbb3a65	-0.022854993
95	0xbbe32e72	-0.006933027
96	0x42595874	54.33638
97	0x3c2f2514	0.010689992
98	0x3c9f39e1	0.019436779
99	0xbd09a57c	-0.033605084
100	0x425949ac	54.321945
101	0x4259868e	54.3814
102	0x42595115	54.32918
103	0x42595184	54.329605
104	0x3c9fd11a	0.019508887
105	0x42596fae	54.359062
106	0xbd0cf6c4	-0.03441502
107	0x3ccd8d73	0.025091862
108	0x3c3b8046	0.011444157
109	0x42597616	54.36532
110	0x3c05b854	0.008161623
111	0xbb7afbd1	-0.0038297067
112	0xba043e50	-0.00050446857
113	0x3cf69446	0.0301
114	0xbc5f5ae8	-0.013632514
115	0x42596240	54.345947
116	0x42594947	54.32156
117	0x3c982015	0.018569985
118	0xbc59ff74	-0.013305534
119	0x42595fb7	54.34347
120	0xbcba91d2	-0.02277461
121	0xbd2bb124	-0.04191698
122	0x3d0ae28f	0.03390747
123	0xbca5f6f9	-0.020259367
124	0xba719183	-0.00092151033
125	0xbd19c960	-0.03754556
126	0x3c42e57f	0.011895536
127	0x3cdc6527	0.026903702
128	0x3d0f4a21	0.034982804
129	0xbccbce60	-0.02487868
130	0x3c27a119	0.01023128
131	0xbd124a9a	-0.035715677
132	0xbb077096	-0.0020666472
133	0xbcacb49c	-0.021082215
134	0x3b9f884d	0.0048685432
135	0x3be9f399	0.007139635
136	0xbca11b1e	-0.01966625
137	0x42597944	54.368423
138	0xbd103960	-0.035210967
139	0xbd046dd2	-0.032331295
140	0xbcbcbac5	-0.023038277
141	0x3c6d1281	0.014469744
142	0x3d1ac901	0.03778935
143	0xbb66a7ab	-0.0035195153
144	0x3cb6c393	0.022310054
145	0x3d07e0a5	0.033173222
146	0x3c9ab8db	0.018886974
147	0xbd2a9b42	-0.04165197
148	0x3ccb6d02	0.024832252
149	0xbcc2c94e	-0.02377763
150	0xbcd23792	-0.025661264
151	0xbbed6df3	-0.007245773
152	0xbbbe91ed	-0.0058157356
153	0x42593578	54.302216
154	0xbcb3bd56	-0.021940868
155	0x3c15ffd9	0.009155237
156	0x42594c11	54.324284
157	0xbd09e578	-0.033666104
158	0xbc37da2c	-0.01122145
159	0x3caddaf7	0.021222575
160	0x3b45c9e9	0.0030180162
161	0x42594c28	54.32437
162	0x3ce573f1	0.028009387
163	0x42597238	54.36154
164	0xbd10dba9	-0.035365734
165	0xbcbd4b60	-0.02310723
166	0xbcc42b47	-0.023946417
167	0xbb93fb1a	-0.0045160176
168	0x425987a2	54.382454
169	0xbd3ea5e9	-0.046544943
170	0x42594f51	54.327457
171	0x3cdaf5d9	0.026728557
172	0xbaa5aae4	-0.001263943
173	0x42593ef3	54.311474
174	0xbc25a608	-0.010110386
175	0x42597cb1	54.37177
176	0x42596dfa	54.3574
177	0x3bf8cf48	0.007593069
178	0xbca51756	-0.020152729
179	0xbd4b8ca2	-0.049694665
180	0x42594536	54.31759
181	0xbd1c02d9	-0.038088653
182	0x42599026	54.39077
183	0xbcecabc8	-0.028890505
184	0xbb4a9d99	-0.003091669
185	0x42597d1b	54.372173
186	0x3d0f5220	0.03499043
187	0xbc78512a	-0.01515607
188	0xbd4ffe2e	-0.050779514
189	0x42594928	54.32144
190	0xbcef01c2	-0.029175643
191	0xbd1ac8d1	-0.03778917
192	0x42597e88	54.373566
193	0xbd0a2af4	-0.03373237
194	0xba98f474	-0.0011669532
195	0x4259698e	54.35308
196	0x42597857	54.36752
197	0xbaa42ec3	-0.0012526143
198	0x3b97fa72	0.0046380097
199	0x42598de0	54.38855
200	0x42591a6f	54.275814
201	0xbcf614d7	-0.030039234
202	0xbd48f251	-0.049059216
203	0xbd070290	-0.03296143
204	0x3caf5d96	0.02140693
205	0xbd24dec7	-0.04025152
206	0xbd10abd5	-0.03532012
207	0xbd12b8c3	-0.035820734
208	0x3cc70850	0.024295956
209	0xbd4f6aa6	-0.050638817
210	0x4259945e	54.39489
211	0xbc42faf3	-0.011900651
212	0xbd2d4cbb	-0.042309504
213	0xbd2def48	-0.042464525
214	0x3af43efb	0.0018634492
215	0xbbd87ad9	-0.0066064415
216	0x4259787e	54.36767
217	0x42596ebf	54.35815
218	0x4259718e	54.360893
219	0x3ccbdd6f	0.024885861
220	0x425967f2	54.35151
221	0xbd166e9e	-0.036726587
222	0x3c1386bb	0.00900429
223	0x3c24dc6e	0.01006232
224	0xbc6bba6d	-0.014387709
225	0x3cc39a38	0.023877248
226	0x425958a4	54.336563
227	0x3cb32f51	0.021873148
228	0xbd300bee	-0.042980127
229	0x42597fe0	54.374878
230	0xbc82dc3a	-0.015974153
231	0xbd3dd4f5	-0.04634567
232	0xb9ec7a51	-0.0004510456
233	0x42593b5c	54.30797
234	0x42596dd4	54.357254
235	0x3c29be4e	0.010360314
236	0x3b637b9d	0.003471113
237	0x3c788561	0.015168519
238	0x42597216	54.361412
239	0x3c617e71	0.013763056
240	0x3ca2cd58	0.019873306
241	0xbba329a4	-0.004979329
242	0x3d06ed1a	0.03294096
243	0xbce80457	-0.028322382
244	0x42596d2f	54.356625
245	0xbcea7db2	-0.02862439
246	0x425965b1	54.349308
247	0xbab07c21	-0.0013464728
248	0xbcf89b87	-0.030347599
249	0x42598a89	54.38529
250	0x42596f72	54.358833
251	0xbd3adeb2	-0.045622535
252	0xbce7599d	-0.028240973
253	0xbd324f83	-0.04353286
254	0x42595209	54.330112
255	0x42598002	54.375008

net.4.weight f4 [128, 256]
0	0xbbcd7830	-0.006270431
1	0xbd6f4858	-0.0584186
2	0xbcfaf618	-0.030634925
3	0x3d26195f	0.04055154
4	0xbd38576e	-0.045005254
5	0x3ca48d67	0.020086957
6	0x3c853668	0.016261294
7	0xbbe50390	-0.00698895
8	0x3d369130	0.044572055
9	0xbd6f8940	-0.0584805
10	0xbcc26aa4	-0.02373249
11	0x3c826e34	0.01592169
12	0xbc995640	-0.018717885
13	0x3c80a1fe	0.015702244
14	0x3bc13c4a	0.0058970796
15	0x3c8a09b5	0.016850332
16	0x3c89e0a0	0.016830742
17	0x3d1a0c8c	0.037609622
18	0x3d361a4e	0.04445868
19	0xbd7d03c4	-0.06177117
20	0x3d485418	0.048908323
21	0x3d057f22	0.032591946
22	0x3ae9b0c0	0.0017829165
23	0xbd77aec6	-0.06046941
24	0x3d18708a	0.0372167
25	0xbd652dbc	-0.05595182
26	0x3ce45c20	0.02787596
27	0x3cb244a8	0.021761253
28	0x3ad3ed80	0.0016168803
29	0xbc134a48	-0.008989878
30	0x3c27dade	0.010245053
31	0xbd6655c8	-0.05623415
32	0xbd01cb08	-0.031687766
33	0xba90505f	-0.001101028
34	0xbcb928ec	-0.02260252
35	0x3ca734d8	0.02041094
36	0x3d3de198	0.04635772
37	0x3d156bfa	0.036479928
38	0xbd5c2fe6	-0.053756617
39	0x3d3c4de4	0.04597272
40	0x3cdd2b9c	0.026998334
41	0x3c8666f8	0.016406521
42	0xbce25040	-0.027626157
43	0xbd6b02e0	-0.05737579
44	0xbd09dc7c	-0.033657536
45	0x3c29f602	0.010373594
46	0xbd7aa026	-0.061187886
47	0x3d7d1838	0.061790675
48	0xbd06d11e	-0.032914273
49	0x3d3f1522	0.046651013
50	0x3cf5312a	0.02993067
51	0xbae58740	-0.0017511621
52	0x3cb47cb8	0.022032127
53	0x3b8be140	0.0042687953
54	0xbd0fe358	-0.03512892
55	0x3d0b7ace	0.034052663
56	0xbd3ff220	-0.046861768
57	0x3a6abb80	0.0008954331
58	0x3d1d980d	0.038475085
59	0x3d4af882	0.0495534
60	0xbce757e2	-0.028240148
61	0xbcbf3ee0	-0.02334541
62	0xbd81cc16	-0.063377544
63	0x3b9304b0	0.004486643
64	0x3d284601	0.041082386
65	0x3bef3840	0.0073004067
66	0x3d63d57a	0.05562351
67	0xbd21b88c	-0.03948264
68	0xbd0dbaa0	-0.034601808
69	0x3caa28c8	0.0207714
70	0xbd2b61e6	-0.04184141
71	0x3bcfaf10	0.0063380077
72	0xbc795da8	-0.015220083
73	0xbd484780	-0.048896313
74	0xbcf2c8e0	-0.0296368
75	0x3d16ef48	0.03684929
76	0x3d1e2230	0.038606822
77	0x3c045e28	0.008079089
78	0xbd369030	-0.0445711
79	0x3cd5adb0	0.026083797
80	0x3ac1a516	0.0014773931
81	0x3c852758	0.016254112
82	0xbc6c8138	-0.014435105
83	0xbcc13fd4	-0.023590006
84	0xbd3688ea	-0.044564165
85	0x3cdd7384	0.027032621
86	0x3d6f58fe	0.05843448
87	0x3bb66fd0	0.0055675283
88	0xbc287b30	-0.010283276
89	0x3cdfd434	0.027322866
90	0x3d698e1c	0.05702029
91	0x3d23e6a2	0.04001487
92	0xbd84de50	-0.06487715
93	0xbcb05f98	-0.021529958
94	0xbc287f80	-0.010284305
95	0x3d4a510c	0.0493937
96	0x3b5762ad	0.0032865212
97	0xbd40c68e	-0.047064357
98	0xbd60704c	-0.054794595
99	0xbca7b554	-0.020472206
100	0xbd733a31	-0.059381668
101	0xbd3ac13f	-0.04559445
102	0xbc23d910	-0.010000482
103	0xbc024de3	-0.00795314
104	0x3ba25430	0.0049538836
105	0xbc3a785f	-0.011381238
106	0x3d602c6e	0.05472987
107	0xbd5eb996	-0.054376207
108	0xbd6a2fa6	-0.057174347
109	0x3d4eb2d7	0.050463524
110	0xbd39a13a	-0.045319773
111	0xbbdf0810	-0.006806381
112	0x3d6e0bac	0.0581166
113	0xbd4a392e	-0.049370937
114	0x3d43d19c	0.04780732
115	0xbcc6f9d4	-0.02428905
116	0x3b7f1837	0.0038924345
117	0xbccf2048	-0.025283948
118	0xbc9bb7c4	-0.019008525
119	0xba46d300	-0.0007584542
120	0xbcaa7f2c	-0.020812593
121	0xbc9d0490	-0.019167215
122	0xbd25906c	-0.040420935
123	0xbc10d7a0	-0.0088404715
124	0x3c49c6a8	0.01231543
125	0x3d0ee2fa	0.03488443
126	0xbca3aed8	-0.019980833
127	0xbc88344c	-0.0166265
128	0xbd02e2ec	-0.03195469
129	0x3d2ff6e6	0.04296007
130	0xbd70a12e	-0.058747463
131	0xbd669cb8	-0.056301802
132	0xbc4ad690	-0.012380257
133	0xbc75e5e0	-0.01500842
134	0xbcb159ec	-0.021649323
135	0x3c331e78	0.010932557
136	0x3d30eb4e	0.043193154
137	0xba895af8	-0.0010479381
138	0x3cafd000	0.021461487
139	0xbc2a9bf8	-0.010413162
140	0xbc891140	-0.016731858
141	0xbcda9f3c	-0.026687257
142	0xbcc22179	-0.023697602
143	0xbb077ec0	-0.0020674914
144	0xbc846448	-0.0161611
145	0x3d7255fa	0.059164025
146	0x3d5aa504	0.053380027
147	0xbd24adfa	-0.04020498
148	0x3c82a024	0.015945502
149	0x3d5c4e6a	0.05378572
150	0x3d0dfd34	0.0346653
151	0x3ce0b254	0.027428783
152	0x3d1c5c2c	0.03817384
153	0xbcffa87c	-0.03120827
154	0x3c06a4d8	0.008218013
155	0xbbf4a350	-0.0074657574
156	0xbaa057dd	-0.0012233217
157	0x3d287d2e	0.041135006
158	0xbd1e7562	-0.038686164
159	0x3d0680fa	0.032837845
160	0xbb3439a0	-0.0027500167
161	0xbd2b1347	-0.04176643
162	0xbc35bf28	-0.0110929385
163	0xbcdaf045	-0.026725898
164	0xbd0be70e	-0.034155898
165	0x3ceec29c	0.029145531
166	0x3d48513c	0.048905596
167	0xbd0cf4c0	-0.0344131
168	0xbd20046b	-0.039066713
169	0x3cf479c0	0.029843211
170	0xbd8a9740	-0.0676713
171	0xbcf6ea0c	-0.0301409
172	0xbd1c57b6	-0.038169585
173	0xbc4c6edf	-0.012477606
174	0xbd46d4ca	-0.048542775
175	0xbd9495db	-0.07255145
176	0x3cec8188	0.028870359
177	0xbc4eab60	-0.012614101
178	0xbd26c70c	-0.04071717
179	0xbd2d9716	-0.042380415
180	0x3d5208d3	0.051277947
181	0xbb915cf0	-0.004436128
182	0xbc7dbd20	-0.015486985
183	0xbd38c846	-0.04511287
184	0xbcaa1058	-0.020759746
185	0xbd2afac2	-0.041743048
186	0x3d33b8c6	0.043877386
187	0xbd11345c	-0.035450324
188	0xbcb92d54	-0.022604622
189	0xbd072d3e	-0.03300213
190	0x3cd7f514	0.02636198
191	0x3c054338	0.008133702
192	0x3c931b3f	0.017957328
193	0xbd104ee0	-0.03523147
194	0xbd1d9984	-0.038476482
195	0xbd56f02b	-0.052475136
196	0xbcf7eb02	-0.030263428
197	0x3d7acf86	0.061233066
198	0xbd2c5ff0	-0.04208368
199	0x3cc9a231	0.024613472
200	0x3d64274c	0.05570154
201	0xbc92d1dc	-0.017922334
202	0x3d106828	0.03525558
203	0xbd5a0062	-0.05322302
204	0x39a24400	0.00030949712
205	0x3ceb60e4	0.028732724
206	0xbd01f8fa	-0.031731583
207	0x3ce08240	0.027405858
208	0xbd4a4bd4	-0.04938872
209	0x3d1b5eea	0.037932314
210	0xbd920e58	-0.07131642
211	0xbd64b810	-0.0558396
212	0xbd243e4a	-0.040098466
213	0x3ca7911c	0.020454936
214	0xbd148258	-0.036257118
215	0x3d36b07a	0.044601895
216	0xbc8554fb	-0.016275873
217	0x3c1117c1	0.008855761
218	0x3d105c94	0.03524454
219	0x3d61564e	0.055013947
220	0xbd8d480f	-0.0689851
221	0x3d3e2238	0.046419352
222	0x3c46ad88	0.012126334
223	0x3c7d24a0	0.015450627
224	0x3a781900	0.00094641745
225	0x3cf380e0	0.029724538
226	0x3cef4021	0.029205384
227	0x3d15715c	0.03648506
228	0xbcaa24c4	-0.020769484
229	0xbd2499ba	-0.040185668
230	0xbbfab570	-0.0076510236
231	0x3d649b9e	0.05581247
232	0x3ced8144	0.028992303
233	0x3ceb2eb0	0.028708786
234	0xbd58bc3b	-0.052913886
235	0xbd76fb50	-0.060298264
236	0xbcd89cec	-0.026442014
237	0x3bb7e6e0	0.0056122392
238	0x3b012380	0.0019704998
239	0xbc11dc10	-0.008902565
240	0xbd3636a0	-0.04448569
241	0x3c8697e4	0.016429849
242	0x3d497c26	0.049190663
243	0x3cfd818c	0.030945562
244	0x3c7f07d6	0.015565833
245	0xbd0b0324	-0.033938542
246	0xbd7d85db	-0.061895233
247	0x3d3bac82	0.045818813
248	0x3c284f18	0.010272764
249	0xbd71d087	-0.059036758
250	0x3c6c9e1d	0.014441994
251	0xbcdfa810	-0.027301818
252	0xbc1759e0	-0.009237736
253	0x3d6ed42a	0.058307804
254	0xbccb1044	-0.02478803
255	0x3d07f834	0.03319569

net.4.bias f4 [128]
0	0xbd3390e1	-0.04383934
1	0x3c257df9	0.010100835
2	0xbd03942a	-0.032123722
3	0xbd4b574d	-0.049643803
4	0x42518890	52.38336
5	0xbd4dc532	-0.05023689
6	0xbbddbc37	-0.0067668217
7	0x3a259a33	0.0006317228
8	0xbd5b1f3b	-0.05349658
9	0x42528845	52.633076
10	0xbc7a9bcf	-0.015295937
11	0x3d358e6d	0.04432528
12	0x3c7552a9	0.014973321
13	0x3af7219f	0.0018854624
14	0xbd7b6e80	-0.061384678
15	0xbd51fdea	-0.051267542
16	0x3cab2240	0.020890355
17	0x3d34526d	0.04402392
18	0xbd3fafb4	-0.046798423
19	0xbce2b3d3	-0.027673637
20	0xbc80da78	-0.015729174
21	0x3ce8f86c	0.02843877
22	0x3d5c1bdd	0.05373751
23	0x4252ecd8	52.731293
24	0x3cb82c36	0.022482019
25	0x3b9dc443	0.004814656
26	0x3d04780b	0.032341044
27	0x3d2553cb	0.040363114
28	0x3d189f0f	0.037261065
29	0x3cc3e49a	0.023912717
30	0xba2b4536	-0.00065334456
31	0xbc6908ee	-0.01422332
32	0x425208f1	52.50873
33	0x3d3a82ed	0.045535017
34	0xbd67e9d8	-0.056619495
35	0xbd6a60b9	-0.05722115
36	0xbd6a0f22	-0.057143338
37	0x3c004e5c	0.007831182
38	0x3d238ce4	0.039929286
39	0xbcc32ada	-0.023824144
40	0xbd7bdd7d	-0.061490525
41	0x3ca2bd54	0.01986567
42	0xbd3a5cf4	-0.045498803
43	0xbc0f4070	-0.00874339
44	0xbd2e0f2a	-0.04249493
45	0x3d5cccbd	0.05390619
46	0xbd0793c9	-0.033099923
47	0xbd45c947	-0.048287656
48	0xbcc2a690	-0.023761064
49	0xbc97aaf4	-0.018514134
50	0x3c02c752	0.007982092
51	0x42529030	52.64081
52	0x3d35595c	0.044274673
53	0x3c325eb4	0.010886837
54	0xbc557405	-0.0130281495
55	0x3cdca2b2	0.026933048
56	0x3d442e69	0.047895823
57	0xbd167d2c	-0.036740467
58	0x4251c863	52.44569
59	0x4253b798	52.92929
60	0xbcaa68d8	-0.020801947
61	0xbd7dfb27	-0.062007096
62	0x3c073072	0.008251296
63	0x3bfc4d1e	0.007699623
64	0x3c4760db	0.012169088
65	0xbccd36df	-0.025050579
66	0x42527aec	52.62004
67	0xbd36a7a4	-0.04459347
68	0x3ced97d5	0.029003063
69	0xbcf248cc	-0.029575728
70	0xbbd23b6b	-0.0064157746
71	0x4252c4b3	52.69209
72	0x3c98017c	0.018555395
73	0xbccd6353	-0.025071776
74	0xbc164f77	-0.009174219
75	0x3c94316f	0.018089978
76	0x3c2209b1	0.009890006
77	0xbb3f0cda	-0.0029151947
78	0xbb99d0e9	-0.0046940935
79	0x3b752f9e	0.0037412415
80	0xbd236879	-0.039894555
81	0x3ce68272	0.028138373
82	0x425210f8	52.51657
83	0xbc6090d0	-0.013706401
84	0xbcde0d60	-0.027105987
85	0x3913df93	0.000141023
86	0x3d0fa48d	0.035069037
87	0x4253c606	52.943382
88	0x3c077070	0.008266553
89	0xbd8016f4	-0.06254378
90	0xbd89a4de	-0.06720899
91	0x3b61d649	0.003446
92	0x3cd342da	0.025788713
93	0x42540775	53.007282
94	0x3c85d927	0.016338898
95	0xbc8fc9e4	-0.017552324
96	0x4251b5d8	52.42758
97	0xbd86fb74	-0.065909296
98	0x3d6695bc	0.05629514
99	0x4253819f	52.876583
100	0x3d1ce6a1	0.038305882
101	0xbce2b310	-0.027673274
102	0xbd8eb62c	-0.0696834
103	0x3c25f286	0.010128623
104	0x425371bd	52.861073
105	0x425297f9	52.64841
106	0xbc2ab97d	-0.0104202
107	0xbd31bde6	-0.043393992
108	0xbcc1ab94	-0.023641385
109	0xbc52a5ee	-0.0128569435
110	0x3c3248e8	0.01088164
111	0xbd48f826	-0.049064778
112	0x3c98abf4	0.018636681
113	0x4253876b	52.882244
114	0xbcca68e4	-0.024708219
115	0xbca205bf	-0.01977813
116	0x4252d021	52.70325
117	0xbd650bea	-0.055919565
118	0x3b9bcbc2	0.0047545144
119	0xbd056478	-0.032566518
120	0x3b430e8e	0.0029763314
121	0x3c41e147	0.011833495
122	0xbd65a42c	-0.05606477
123	0xbd3e5170	-0.046464384
124	0x3d75fe4e	0.060056977
125	0x3d34d074	0.04414411
126	0x425444d4	53.067215
127	0x42529a04	52.650406

net.6.weight f4 [26, 128]
0	0xbda66b1a	-0.08125897
1	0xbd376046	-0.044769548
2	0xbda0594a	-0.078295305
3	0xbd18e6ae	-0.03732937
4	0x416fe2c7	14.992866
5	0xbd59220a	-0.053010978
6	0x3d967d93	0.0734817
7	0xbd342472	-0.04398007
8	0x3cf833eb	0.030298194
9	0x416fd2fa	14.989008
10	0xbd90e9f5	-0.07075874
11	0x3dc316eb	0.09525856
12	0xbd965fb9	-0.073424764
13	0xbd202cca	-0.039105214
14	0x3ca48808	0.020084396
15	0xbd316027	-0.04330459
16	0xbcb1fe77	-0.021727784
17	0x3d419c27	0.04726806
18	0xbd556ed3	-0.052107643
19	0x3d581746	0.05275657
20	0x3ce4c3c0	0.027925372
21	0x3c80a40c	0.015703224
22	0x3d94ca94	0.07265201
23	0x4171bba7	15.108314
24	0x3c3c18a2	0.011480482
25	0xbcd9a11d	-0.026566083
26	0xbd509b1e	-0.05092918
27	0x3ddcfffe	0.10791014
28	0xbcf8d622	-0.030375544
29	0x3d8cfa64	0.06883696
30	0x3d657f55	0.056029636
31	0xbd721741	-0.059104208
32	0x4171fefe	15.124754
33	0xbb1eac75	-0.002421168
34	0x3daa19ff	0.083057396
35	0x3d49aed6	0.049239002
36	0x3d1fcebb	0.039015513
37	0x3d615f4a	0.055022515
38	0x3c691392	0.014225857
39	0xbd7994d4	-0.06093295
40	0xbd500a34	-0.05079098
41	0xbc346169	-0.0110095525
42	0xbd42cf20	-0.04756081
43	0xbc886e70	-0.016654223
44	0x3d44f7c2	0.048087843
45	0x3d72ec8a	0.059307612
46	0xbd8bfe12	-0.068355694
47	0xbd5845e4	-0.052801028
48	0x3cc99338	0.024606332
49	0xbcd1c220	-0.025605261
50	0x3de8933b	0.11356207
51	0x41705895	15.021626
52	0xbc69e60b	-0.014276038
53	0x3d9057b9	0.07047982
54	0xbd3f644f	-0.04672652
55	0xbcf93c8b	-0.030424377
56	0xbd4d5f58	-0.050139755
57	0xbda00c5b	-0.078148566
58	0x41710ebc	15.066097
59	0x41716a26	15.088415
60	0xbd063b2e	-0.032771282
61	0xbd015ce7	-0.03158274
62	0x3d3ee070	0.04660076
63	0x3babccc6	0.0052429168
64	0x3c27e093	0.010246414
65	0x3da78bb7	0.08180945
66	0x4171a714	15.103291
67	0xbc21c5f8	-0.00987386
68	0x3dab16d2	0.08353962
69	0x3dc02fc4	0.093841106
70	0xbd0c399d	-0.03423463
71	0x4170f106	15.058844
72	0xbd70e6ef	-0.058813985
73	0xbdb0f458	-0.08640355
74	0x3daa9a0a	0.08330162
75	0xbd75502e	-0.05989092
76	0x3d8e3eae	0.06945549
77	0xbcb75557	-0.02237956
78	0xbcd7670a	-0.02629425
79	0xbd47250e	-0.048619322
80	0xbd8e3dde	-0.06945394
81	0x3bda5738	0.0066632293
82	0x416fe2df	14.992888
83	0x3d9f2c91	0.07772172
84	0xbccfdb40	-0.025373101
85	0x3daaadcc	0.083339304
86	0xbce5651d	-0.028002316
87	0x41717b52	15.0926075
88	0x3d7ecc49	0.06220654
89	0x3d8c21e3	0.06842401
90	0x3d3c5f2e	0.045989208
91	0x3d57516e	0.05256789
92	0xbd0d0a91	-0.034433905
93	0x4171c75a	15.11117
94	0x3c86ffec	0.016479455
95	0x3d0947b4	0.033515647
96	0x41708706	15.032965
97	0x3a627c00	0.0008639693
98	0x3d7e173f	0.062033888
99	0x41700293	15.000628
100	0x3db8f893	0.09031787
101	0xbd0df714	-0.03465946
102	0x3d4bed36	0.04978677
103	0xbb3c7d17	-0.0028761083
104	0x41711642	15.067934
105	0x41727807	15.154304
106	0x3cff7c82	0.0311873
107	0x3d5a57e2	0.053306468
108	0x3cd77be0	0.026304185
109	0xbc7931b4	-0.015209604
110	0xbd0ab20b	-0.0338612
111	0x3c30a4f0	0.010781512
112	0x3d19c632	0.03754253
113	0x4170f31a	15.059351
114	0xbd4f96e3	-0.050681006
115	0xbd41bccb	-0.047299188
116	0x4171ef54	15.12093
117	0xbc64d958	-0.013967834
118	0xbd8e40b9	-0.069459386
119	0xbaf85b40	-0.0018948093
120	0x3da2c6c2	0.07948066
121	0xbd1f139e	-0.038837068
122	0x3cdef17c	0.027214758
123	0x3d3cc8fe	0.04609012
124	0x3d90a4e6	0.07062702
125	0xbcd5d3ab	-0.026101908
126	0x416f230a	14.946054
127	0x4171427c	15.078732
128	0x3d7b10b2	0.06129522
129	0xbc874c8c	-0.016515993
130	0x3ccfd328	0.025369242
131	0xbc965258	-0.018349811
132	0x40020a39	2.031874
133	0x3aec8640	0.0018045381
134	0x3d03902e	0.032119922
135	0xbb94b470	-0.0045381114
136	0xbd257d35	-0.04040261
137	0x3ff63dfd	1.9237667
138	0xbd804512	-0.06263174
139	0x3b00862e	0.0019611227
140	0x3d407e86	0.046995662
141	0x3cab358f	0.020899562
142	0xbd9ae15e	-0.07562517
143	0xbd385824	-0.045005932
144	0xbcb49ce0	-0.02204746
145	0x3d1e4d9e	0.03864824
146	0xbca7f764	-0.020503707
147	0xbd7dff74	-0.062011197
148	0x3cf180cc	0.02948036
149	0xbd6de1c0	-0.05807662
150	0x3d8ce8c1	0.06880332
151	0x40010ee4	2.0165339
152	0x3cb189a0	0.02167207
153	0xbd8ac9c0	-0.06776762
154	0xbcaf8234	-0.02142439
155	0xbd21e1d1	-0.039521996
156	0xbaff75c0	-0.0019490048
157	0x3d82dfa2	0.06390311
158	0x3d001cea	0.031277575
159	0x3c6ab538	0.0143254325
160	0x40018274	2.0235872
161	0xbd51e03a	-0.05123923
162	0xbd301565	-0.042989153
163	0xbcbbdb58	-0.02293174
164	0xbd45fd78	-0.04833743
165	0xbb61b700	-0.0034441352
166	0xbd14ba5a	-0.03631053
167	0xbd4c6adf	-0.049906608
168	0xbd23bb03	-0.03997327
169	0x3d456137	0.048188414
170	0x3da21aef	0.079152934
171	0x3d6841fe	0.05670356
172	0x3d9f6435	0.07782785
173	0xbd8b29d0	-0.067950845
174	0x3d7c4ae2	0.06159485
175	0xbc90e550	-0.01768747
176	0xbd74330e	-0.059619002
177	0xbd14652e	-0.036229305
178	0xbd2ca4a6	-0.04214921
179	0x3ff1bdf8	1.8886099
180	0x3d45ec9a	0.048321344
181	0x3da7f759	0.08201475
182	0xbc175d98	-0.009238623
183	0x3cd589d4	0.026066698
184	0x3ca9ba08	0.02071859
185	0xbd6f1cff	-0.058377262
186	0x3ffe5a7d	1.9871365
187	0x3ff40e56	1.9066875
188	0xbd9fe81d	-0.07807944
189	0x3d9ab4c7	0.07554012
190	0xbdaecb7b	-0.085349046
191	0xbbd9e9f7	-0.0066502052
192	0xbc3ad49c	-0.011403229
193	0xbd8b93f6	-0.06815331
194	0x3fecf1bf	1.8511275
195	0x3d6c999e	0.05776369
196	0xbd63f013	-0.055648874
197	0x3ce9cefa	0.028541077
198	0xbda535da	-0.08066912
199	0x3ffcbd53	1.9745277
200	0x3b8c66e0	0.0042847246
201	0xbb6033a0	-0.0034210458
202	0x3b09eb60	0.0021044835
203	0xbd404318	-0.046938986
204	0xbd44e144	-0.048066393
205	0xbc91392a	-0.017727453
206	0xbd06974d	-0.032859135
207	0x3d05e55e	0.032689445
208	0xbcc7a708	-0.024371639
209	0x3daccbc5	0.084373035
210	0x3ff61be7	1.9227265
211	0x3c9f9ff0	0.019485444
212	0xbd3d91e0	-0.046281695
213	0x3d60c419	0.054874513
214	0xbd8306fe	-0.06397818
215	0x3ff67295	1.9253718
216	0x3bb4188b	0.00549609
217	0x3d3bb6b4	0.045828536
218	0x3c9d8280	0.019227266
219	0xbdb2f096	-0.087372944
220	0xbd36ddf3	-0.04464526
221	0x40000df7	2.0008523
222	0x3c5dc17a	0.013534898
223	0xba9a3f68	-0.0011768164
224	0x3ff6ba71	1.9275647
225	0xbd306724	-0.043067113
226	0xbd82b772	-0.06382646
227	0x3fee3b25	1.86118
228	0x3cb1e749	0.02171673
229	0xbcfb2a96	-0.030659955
230	0x3d84f5ed	0.06492219
231	0xbd607fd2	-0.0548094
232	0x40004274	2.004056
233	0x3fef959d	1.8717533
234	0xbda2744b	-0.079323374
235	0xbd921fc6	-0.071349666
236	0x3d310256	0.04321512
237	0x3bc69503	0.006060244
238	0xbd3603c3	-0.04443718
239	0x3d8f197f	0.06987285
240	0xbd12a981	-0.035806183
241	0x4000b292	2.010899
242	0x3cc006ec	0.0234408
243	0x3dab27cf	0.08357202
244	0x3fff1b7c	1.9930263
245	0xbcc76cac	-0.024343811
246	0x3cf0eab0	0.029408783
247	0x3cb1ded8	0.021712705
248	0x3d68417a	0.05670307
249	0xbc449790	-0.011999026
250	0x3cd17f94	0.02557353
251	0xb88fe000	-6.8604946e-05
252	0x3d6c2ca6	0.057659768
253	0xbd71db8d	-0.05904727
254	0x3fee7adb	1.8631243
255	0x3ffd5741	1.9792253

net.6.bias f4 [26]
0	0x41d876be	27.05798
1	0x40aa9773	5.3309875
2	0x40a36a9a	5.106763
3	0x40ab7797	5.3583484
4	0x40b369a2	5.6066446
5	0x40b0b624	5.522234
6	0x409acddc	4.8376293
7	0x41b62e85	22.772715
8	0x40ab1960	5.3468475
9	0x409f28b6	4.9737196
10	0x40aa503a	5.3222933
11	0x41d206d6	26.253338
12	0x40b0f8ac	5.5303555
13	0x41202a7a	10.01037
14	0x41680229	14.500527
15	0x40ab6beb	5.3569236
16	0x40a93682	5.287904
17	0x40abf17d	5.3732285
18	0x419fe78f	19.988066
19	0x40b64e8f	5.6970897
20	0x40d2a3e8	6.582508
21	0x40a8668d	5.2625184
22	0x40afd0a0	5.494217
23	0x40b18c49	5.5483747
24	0x40abddf7	5.3708453
25	0x40ace71e	5.4032125
