dqn_hangman.pt (torch, 123376 bytes, 6 tensors)

net.0.weight f4 [128, 157]
00000000: d833 9d42 5efc 0241 fa78 aa41 9d02 ba40
00000010: 99e5 ce3f e1fd b240 cfa4 a440 c882 7d40
00000020: 35e8 8b3f 2493 a441 77f3 0a40 c84c d741
00000030: 7568 b640 bf63 1a40 ef38 493c 09ec fc40
00000040: 797a 2c3f e2dc 6742 8c09 0843 fb12 cd40
00000050: 40ca 673f 5bfa f33f 5418 6340 abb7 a83d
00000060: 592d a53f 398b 103f 2fab 1843 1580 c63e
00000070: fedd f640 00ce 173f b8c4 1c41 fced 123e
00000080: e281 943e d429 a940 fb52 2541 4dca 9a3f
00000090: 4191 963f 4a25 df41 8b3f cc3f b4cf 0d40
000000a0: 0ffb 2141 5f8f 3940 810d 7e3e 729a 8f42
000000b0: 1cf8 0042 6376 0a40 8c6f 0841 22f3 e23e
000000c0: b30d b83f 06d2 023f daa0 0740 b59d c53e
000000d0: 2e99 f542 ba9a 6e40 0bb0 d340 8ac6 3640
000000e0: 3268 bd40 04ea b63f 0001 2c40 5512 ac3f
000000f0: ebcd 1241 c448 ae40 c347 0c40 819c da41
00000100: 970f 6440 f0ec d340 560e 8440 80af 4640
00000110: fb3d 2abd fc14 b942 01c3 8942 c761 8f40
00000120: cd1b 9840 c74e fc3f ce2b 1d40 c8f6 313f
00000130: c94c be3f 282f a53f 7b7c ce42 2105 fc3f
00000140: 349f b240 ee82 7940 f4d7 6f41 afae dd3f
00000150: f1ab 3440 cbad a73f e913 da40 361d 4440
00000160: d6ea 9440 922b db41 2fb4 6240 4da2 c140
00000170: 5199 dd3f 2b44 8040 a0f6 9d3d b8dc 8642
00000180: 0251 9f42 f4c6 ea40 c098 7540 edb6 ab3f
00000190: e094 0040 f6a0 a93d fcb3 3e3f 9021 4d3f
000001a0: 5979 8542 640d 1e3f e031 f03f af86 c640
000001b0: c88c f640 284d 1a3f c93c 813f c141 0f40
000001c0: 40ca fa3f 80ca 57ba 8281 3f40 610e b241
000001d0: a416 e53f dd49 8940 217c 7c3d 58b9 bb3f
000001e0: b051 953c 8f35 7942 e313 6443 cc4b 9d40
000001f0: c799 803e c0d1 dd3a 7aa0 2c3f 03ae 473f
00000200: 4e49 ea40 1f58 f63d 5bd7 8b43 488a a841
00000210: b9d0 1142 6835 af41 64d1 e641 a193 9a41
00000220: d5bc 9e41 b8a6 aa41 09b7 d141 bfe7 0b43
00000230: b0d8 9f41 498c 9c42 3972 9c41 6502 bf41
00000240: 02ff b941 7591 b641 9959 8041 c2ee 4f43
00000250: 4f7b ad43 5f6f c341 6207 b241 b05f 9b41
00000260: 4512 9741 3d58 8841 ac50 a041 84ab 8b41
00000270: 52e7 0044 c653 9d42 1218 0341 d8dc ab41
00000280: bc0b ba40 3968 cf3f e370 b840 10d5 a640
00000290: 806b 8440 e47e 8e3f 29db a441 5fbf 0040
000002a0: 23a5 d641 a7c1 b340 f5c6 1940 17a2 603c
000002b0: e700 f840 8aac 3e3f 077a 6842 c82e 0843
000002c0: 773e cc40 bf76 7f3f 8ec3 f93f 40b7 5f40
000002d0: 6429 c33d ea0f a63f 0352 183f 14c8 1843
000002e0: 4f8f e73e 62e7 f840 f441 1c3f af3a 1f41
000002f0: 15d4 4f3e 4b4e 193e 430d a640 94bb 2741
00000300: 08c1 8e3f f01d 9c3f 64c1 de41 6d52 d33f
00000310: 823b 0f40 6e43 2141 22d3 4140 145b 453e
00000320: ced5 8f42 d493 0042 4dc4 1340 7753 0b41
00000330: ac6c d93e 5fac b03f c555 103f 37ae 0c40
00000340: a4d0 cc3e 4e06 f642 6f7f 6f40 abcb d340
00000350: 8893 3c40 cf8e be40 27df b33f b3ec 3040
00000360: 70b2 a33f effd 1241 d31e af40 63c8 0f40
00000370: 47fc da41 a672 5b40 8352 d140 566b 8540
00000380: 1ffe 4640 50d0 413d 1450 b942 aea3 8942
00000390: 7678 9140 e254 9e40 12f2 0040 758b 1740
000003a0: 029d 193f f293 bd3f c203 aa3f dfa4 ce42
000003b0: ec87 0540 b5ad b540 c17a 7940 b084 6f41
000003c0: c8d2 e13f dedd 3240 f86a a63f 8151 da40
000003d0: 44a5 4240 3445 9140 a9b7 db41 f385 6840
000003e0: f2f8 c040 9a4a d33f 54a0 8040 0392 9a3d
000003f0: d6da 8642 78ae 9f42 eaa5 eb40 e2b2 7140
78.60126 8.186613 21.30907 5.812819 1.6163818 5.593491 5.145118 3.9611073
1.0930239 20.571846 2.17111 26.91249 5.700251 2.412338 0.01228164 7.903813
0.6737438 57.965706 136.0373 6.408567 0.90542984 1.9060777 3.5483599 0.08238157
1.2904464 0.56462437 152.66869 0.38769594 7.7145987 0.59298706 9.798027 0.14348596
0.29005343 5.286356 10.332759 1.2092987 1.1763078 27.893208 1.5956892 2.2158022
10.123794 2.8993757 0.24809839 71.80165 32.242294 2.1634758 8.527233 0.4432612
1.4379181 0.5110172 2.1191926 0.38596883 122.79918 3.7281938 6.6152396 2.8558679
5.918969 1.4290166 2.687561 1.3443094 9.175273 5.4463825 2.19188 27.326418
3.5634515 6.622673 4.12675 3.1044617 -0.041563015 92.540985 68.88087 4.4806857
4.7533937 1.9711541 2.4557986 0.69517183 1.4867183 1.2905016 103.243126 1.9689065
5.581934 3.8986163 14.990223 1.7318934 2.8229945 1.3099912 6.8149304 3.064283
4.6536665 27.396275 3.5422475 6.051062 1.7312413 4.0083213 0.077130556 67.43109
79.65822 7.3367863 3.8374481 1.34152 2.0090866 0.08282654 0.74493384 0.8012934
66.73701 0.6173918 1.8765221 6.203941 7.704685 0.6027398 1.0096675 2.2383883
1.9592972 -0.0008231774 2.9922795 22.25702 1.7897534 4.2902665 0.061641816 1.4665937
0.018227428 62.302303 228.07768 4.9155025 0.25117323 0.0016923472 0.6743237 0.77999896
7.3214483 0.120285265 279.68246 21.06752 36.45383 21.901077 28.852242 19.322084
19.842203 21.331406 26.214373 139.90526 19.980804 78.273994 19.555773 23.87617
23.249516 22.821024 16.043749 207.93265 346.96335 24.42938 22.253605 19.421722
18.88392 17.043085 20.03939 17.458748 515.6144 78.66362 8.193377 21.482834
5.8139324 1.6203681 5.76378 5.2135086 4.1381226 1.1132474 20.607012 2.0116804
26.830633 5.617389 2.4027684 0.01371052 7.75011 0.74482024 58.119167 136.18274
6.382625 0.9979057 1.9512804 3.4955597 0.09529379 1.2973607 0.5950014 152.78156
0.45226523 7.778245 0.61038136 9.951827 0.20295747 0.14971273 5.189119 10.483295
1.1152658 1.2196636 27.844429 1.6509529 2.238007 10.078962 3.0285115 0.19273025
71.91759 32.144363 2.3088562 8.707877 0.42465723 1.3802603 0.56380874 2.1981332
0.4000293 123.012314 3.742153 6.618612 2.9465046 5.9549327 1.4052476 2.764447
1.278883 9.1869955 5.4725127 2.2466056 27.373182 3.4288726 6.541322 4.1693525
3.1092603 0.047317803 92.6564 68.81969 4.5459547 4.9478617 2.0147748 2.3678868
0.600052 1.4810774 1.3282397 103.322014 2.086421 5.6774545 3.8981173 14.969894
1.764245 2.7947917 1.3001394 6.822449 3.041337 4.5396976 27.464678 3.6331756
6.030389 1.6507142 4.0195713 0.07547381 67.427414 79.84076 7.364003 3.7765431

net.0.bias f4 [128]
00000000: 505e d243 578c d243 f27c d243 e974 d243
00000010: 8788 d243 057a d243 a77c d243 657d d243
00000020: e766 c043 7888 d243 de7e d243 2287 d243
00000030: 5e62 d243 f67d d243 ff88 d243 bd83 d243
00000040: 1e88 d243 5105 be43 d890 d243 e68c d243
00000050: bd6e d243 6c7a d243 7d8c d243 e198 2cbe
00000060: 986c 0cbe 467b d243 7b45 d243 348c d243
00000070: d68d d243 a780 d243 9e78 d243 0b8a d243
00000080: c18c d243 2d7a d243 4885 d143 4d79 d243
00000090: 7c8b d243 40f1 c643 a97b d243 1979 d243
000000a0: 7a79 d243 767d d243 1c7e d243 94af 78bd
000000b0: 0380 d243 bfe1 d043 f781 d243 3d50 d243
000000c0: c28c d243 ca84 d243 1686 d243 b355 d243
000000d0: 4c7b d243 4875 34be 028c d243 9e81 d243
000000e0: a981 d243 7084 d243 c378 d243 f17d d243
000000f0: 8086 d243 257a d243 3581 d243 5d79 d243
00000100: 657e d243 dc88 d243 5a84 d243 617d d243
00000110: 0452 d243 c388 d243 db68 d143 0486 d243
00000120: e788 d243 758a d243 3386 d243 418a d243
00000130: 3478 d243 d73b d243 cc81 d243 5b8d d243
00000140: 9087 d243 9184 d243 3a8e d243 287b d243
00000150: b688 d243 2c84 d243 d86e d243 82d7 d143
00000160: 0b57 d243 ad7e d243 8f84 d243 b08e d243
00000170: 707a d243 3e70 d243 fdcc d143 7c81 d243
00000180: 584e d243 8d7b d243 347d d243 d781 d243
00000190: 4278 d243 3185 d243 3f83 d243 de7a d243
000001a0: 5d7c d243 277e d243 2277 d243 0b73 d243
000001b0: 7c6a d243 ec89 d243 0475 d243 4b7f d243
000001c0: 9081 d243 8c82 d243 e166 d243 1678 d243
000001d0: ea7e d243 be6d d243 0f7b d243 0c87 d243
000001e0: 3a8a d243 da84 d243 677d d243 1484 d243
000001f0: cf7b d243 ff77 d243 1b77 d243 577e d243
420.73682 421.0964 420.97614 420.91336 421.06662 420.95328 420.97385 420.97964
384.80392 421.06616 420.99115 421.05573 420.7685 420.98407 421.07028 421.0292
421.06342 380.04153 421.1316 421.10077 420.86514 420.95642 421.09756 -0.16855194
-0.137133 420.96307 420.54282 421.09534 421.1081 421.0051 420.94232 421.07846
421.09964 420.9545 419.04126 420.94766 421.08972 397.88477 420.9661 420.94608
420.94904 420.98016 420.98523 -0.06071432 421.0001 417.76364 421.01535 420.62686
421.09967 421.0374 421.04755 420.66953 420.96326 -0.17622864 421.0938 421.01263
421.01297 421.03467 420.94345 420.98392 421.05078 420.95425 421.00943 420.94815
420.98746 421.0692 421.034 420.97952 420.64075 421.06845 418.81918 421.047
421.06955 421.0817 421.04843 421.0801 420.9391 420.4675 421.01404 421.10434
421.05908 421.03568 421.11115 420.96216 421.06805 421.0326 420.86597 419.68365
420.68002 420.98965 421.0356 421.11475 420.95654 420.8769 419.60147 421.0116
420.61206 420.96524 420.97815 421.01437 420.9395 421.04056 421.02536 420.9599
420.9716 420.98557 420.93073 420.89877 420.8319 421.0775 420.91418 420.99448
421.0122 421.0199 420.80374 420.93817 420.99152 420.85736 420.9614 421.05505
421.0799 421.0379 420.9797 421.03186 420.96725 420.93747 420.9305 420.98703

net.2.weight f4 [64, 128]
00000000: 9190 143d a7a4 b0bd 4d43 7c3d 1506 8b3d
00000010: 1380 953d 51ee 153c f87e 1dbc 2252 d73c
00000020: 79ed 843c 6852 bfbd d8c3 dcbc 1b70 59bb
00000030: f9a9 11bc 2049 f3bc 7cb2 4dbc a79e 92bc
00000040: 2b09 903b 3ebf 1fbd 56b2 5abd 9dc8 473d
00000050: 3d80 91bd cc59 7abc cc46 debb 3ad9 b5bb
00000060: 4482 fc3b d9b8 82bc 99ae d93c 2b11 95bc
00000070: a212 943d 7565 8ebd 771a 19bd dff1 07bd
00000080: 7f65 43bd 4b30 a1bd 6d55 16bd 1770 38bd
00000090: 1ecc ccbd f68d 2abc 17bc 0b3d caa2 17bd
000000a0: 97ff 643d c20b 94bd 2616 d4bc 29d7 203d
000000b0: 706f 2dbd ecff 843d 213a 6cbc 9d20 163d
000000c0: b40b 863c ee55 90bc dc15 ebbc bb67 853d
000000d0: 54c7 9d3d f280 183d e02c 273d ded1 97bb
000000e0: 369d 493d 69ae 03bd 9509 ea3c fcae 9b3c
000000f0: d3d0 b93c b826 88bd 5bb6 5abd 74f7 073d
00000100: 5aef ff3c ec26 97bd 118d b33c d19d 46bd
00000110: 10cb 6fbc a397 41bc 1fa5 b63c b570 b8bd
00000120: 2491 ddba 69b8 26bd 6cda 863d 7e88 a93c
00000130: 4781 663b 2c84 833d 353b 9b3d aff7 4cbd
00000140: ceee e6bc d001 1ebd 1e03 16bb d800 6dbd
00000150: b36c 32bd 021c 1dbd d0f9 9fbd 77b7 71bd
00000160: 90d3 4e3d dc32 cf3c 8e48 85bc 7d3a 603d
00000170: 4188 c9bc 6913 7639 7e96 043d 6502 7f3d
00000180: 63ca 8e3d 0acb e13c 5237 f1bc 53ba 8a3d
00000190: 7a11 673d 8a0e 59bb 128b c3bc 3fc8 7abd
000001a0: 13af 733d dec0 8f3d f7a5 a0bd a6b9 8b3d
000001b0: cd8d 2cbd c837 e83c 5c31 b2bd 8e3a 9abc
000001c0: 393a a83d f676 6b3c 38c5 53bc 4e65 a8bc
000001d0: acb2 9abd 8117 9bbd e1c5 863d bf28 cfba
000001e0: d78c 833d c220 aebd e0f2 bb3c cf66 453c
000001f0: 23f5 663d 495b 33bd d87e 413d 5a88 e13d
00000200: 5b85 7f3d edd9 823d 4fe2 a23c 93ab 8e3d
00000210: e2ed 2bbd 0cc7 2dbc 2e50 993d feef 32bd
00000220: 5472 9dbd c9fa 203c 841a e8bc 249c a03c
00000230: 2ca1 6b3c b047 b13d 7780 9bbd 6c70 58bc
00000240: ff18 c1bd d024 d8bb 8392 96bd cde3 893d
00000250: 3a6a 1b3d 6301 a6bd a3b2 a0bd 3933 c9bc
00000260: af79 9e3d b853 2a3d 23e1 cb3c 61f0 833c
00000270: 44b7 423d 82c5 d63d 58e5 2cbd 9f32 6fbd
00000280: 552f 08bd 573d 2a3d 219e 9f3d ec1d 233c
00000290: e730 993c dc18 ae3d 2231 583d 1436 84bd
000002a0: 512e 3d3d 62c0 59bd d779 94bd ccbf 3b3d
000002b0: 8b57 92bd c76d 053d 6092 0fbc 8b3e 44bc
000002c0: 598b 91bd 704c 973d e14d 363d 4015 a13c
000002d0: 67b5 a5bd df52 bfbd e3fa 79bd 2209 aa3d
000002e0: ddd8 43bd d190 5dbd 4a05 b5bd 8292 793d
000002f0: 7c9c 6c3d b542 53bd 5a2e 38bc 8a75 72bc
00000300: 9580 73bd 5b14 60bc aa1c 42bb 3baf 473a
00000310: 348a c5bc a3e3 723b 3ecf a6ba a877 d3bd
00000320: 53fc ffbc 1bad 8fbd 7547 cd3c dfc7 4e3d
00000330: bfda 90bd b7fa 2abc 75a0 b1bd 6fdc 05bc
00000340: 7dce 73bd a957 0e3d f377 12bd a78d 6fbc
00000350: f933 3cbd d189 a8bd 0c28 653d 5aa6 98bd
00000360: 51bd 75bc 8f85 4fbd 3c8f 333d 6794 5bbc
00000370: 00bd 843b 50b8 4a3d c886 e03c 40f6 bcbb
00000380: 90b6 173b 6cc7 49bd bf44 913d d687 99bb
00000390: 562e 883d ad21 a23d 79b0 313b dbb4 8dbd
000003a0: a394 ff3b 9ae5 7dbd 0fb6 273d 4f70 19bd
000003b0: 39ed 93bc 0440 fb3b 7a12 f23b f26e 2c3d
000003c0: 7a77 24bd 2f88 77bd 3b1b 3d3d 62d0 983d
000003d0: 7aaa d93c f2b9 27bd 9a6d 193d 03f1 99bb
000003e0: 8ad7 3dbd 5edb 933c 40a9 173d dc0e eebc
000003f0: 4600 0ebc caa4 05bc 4742 88bc f183 453c
0.03627068 -0.08625155 0.06158762 0.067882694 0.07299819 0.009151057 -0.009612791 0.026284281
0.016226517 -0.093418896 -0.026948854 -0.0033178392 -0.008890622 -0.029697955 -0.012554761 -0.017897917
0.004395624 -0.039000742 -0.05339273 0.048775304 -0.07104538 -0.015280198 -0.006783342 -0.005549577
0.0077059586 -0.015957283 0.026572512 -0.018196663 0.072301164 -0.06952945 -0.037378754 -0.03318965
-0.047704216 -0.07870539 -0.036702562 -0.045028772 -0.0999987 -0.010409823 0.034114923 -0.037020482
0.055907812 -0.07228805 -0.025889467 0.039267693 -0.042342603 0.06494126 -0.014418156 0.036652196
0.016363002 -0.0176191 -0.028696947 0.06513926 0.077040344 0.037232347 0.04081428 -0.0046331724
0.049222194 -0.032148752 0.028569022 0.019004337 0.022682583 -0.0664801 -0.053396564 0.033194974
0.031242061 -0.07380471 0.021917852 -0.04849035 -0.014635816 -0.011815938 0.022295533 -0.09005872
-0.0016904217 -0.04070321 0.065846294 0.020694967 0.003517227 0.06421694 0.07579652 -0.050040897
-0.028190043 -0.038575947 -0.0022890042 -0.057862133 -0.043560695 -0.03835679 -0.0781132 -0.059012856
0.05049473 0.025292806 -0.016269948 0.05474328 -0.024601104 0.00023467619 0.032370083 0.062258143
0.06972196 0.027562637 -0.029445324 0.0677382 0.05641315 -0.0033120238 -0.023870025 -0.061226126
0.059493136 0.07019208 -0.07844155 0.06822519 -0.04212742 0.028346911 -0.08700821 -0.01882675
0.0821423 0.014371624 -0.012925439 -0.020556118 -0.0755361 -0.075728424 0.06580711 -0.001580499
0.064233474 -0.08502342 0.02294296 0.012048437 0.056386124 -0.04378823 0.04724011 0.11012335
0.062383037 0.06389222 0.019883303 0.06966319 -0.04197491 -0.0106065385 0.07485996 -0.043685906
-0.07687822 0.009825417 -0.028332956 0.019605704 0.014381688 0.086562514 -0.07592862 -0.013210397
-0.09428596 -0.0065961853 -0.07352164 0.06732903 0.037943102 -0.08105733 -0.07846572 -0.024560558
0.07738053 0.041583747 0.024887627 0.016105833 0.047538057 0.104868904 -0.042210907 -0.058397885
-0.033248264 0.041562404 0.077938326 0.009955864 0.018700076 0.08500835 0.05278123 -0.06455627
0.04618675 -0.053161986 -0.072498016 0.04583721 -0.07145604 0.032575395 -0.008762926 -0.011977802
-0.071066566 0.07387626 0.044507865 0.019663453 -0.080912404 -0.09341978 -0.06103028 0.08302523
-0.04781424 -0.054093186 -0.088388994 0.060930736 0.057766423 -0.05157729 -0.01124152 -0.014798531
-0.059448797 -0.013676728 -0.0029619136 0.0007617359 -0.024113752 0.0037061952 -0.0012726558 -0.10325557
-0.031248247 -0.07015439 0.025058487 0.05048358 -0.070729725 -0.010435752 -0.08673183 -0.008170231
-0.059523094 0.034751568 -0.035758924 -0.014621175 -0.045948002 -0.082294114 0.055946395 -0.07453604
-0.01499875 -0.05066448 0.04383777 -0.013402081 0.004050851 0.04949218 0.027408019 -0.00576666
0.0023149587 -0.04926245 0.070931904 -0.0046853824 0.06649463 0.079165794 0.0027113243 -0.06919261
0.0077997013 -0.061986543 0.04094511 -0.03746062 -0.018057453 0.0076675434 0.0073874565 0.042097993
-0.040153004 -0.06043261 0.046168547 0.07461621 0.026570547 -0.040948816 0.03745804 -0.0046979203
-0.046348132 0.018048938 0.037026644 -0.02905982 -0.008667057 -0.008156965 -0.016633166 0.012055383

net.2.bias f4 [64]
00000000: 7308 0fbb 21cc 313d 4b57 33bd 5f3a a4bd
00000010: 2fe6 d043 587d 9dbc d99a 7ebd 6ed5 833d
00000020: ec73 433a 8f74 56bd 7a02 d143 f9e0 d043
00000030: 45c5 d043 a20a d143 3835 2bbd 2bf4 d043
00000040: d5e1 f73b e01f d143 c70a d143 522e 56bd
00000050: 0fc3 51bd ee3c 6b3d 7bf2 d043 dfdb d043
00000060: d97a cfbd 2153 c83b cdf4 37bd 2def d043
00000070: 376f b6bc 9a89 073d 4ae7 4cbd 999b 5c3c
00000080: 699d c4bd c0b3 ecbc edee d043 3a20 98bd
00000090: b93e d143 5a3b e8bc ea0d f0bb 23bc 43bd
000000a0: 01c9 1ebd a713 d143 459a b0bd 5d12 d143
000000b0: 2bf7 bebd 591d a9bd 8428 d143 a4e2 d043
000000c0: 5b05 d143 4aaa 07bb f392 afbd b0ed d043
000000d0: dadf 3cbd 5ae7 08bd 9fc8 673d d66e 053c
000000e0: 0ff1 d043 99f1 d043 90f1 883d ae02 d143
000000f0: d3d2 d043 28ad 4dbc a752 4cbd d065 ee3a
-0.0021825104 0.043407563 -0.04378442 -0.08018946 417.7983 -0.019224808 -0.062159393 0.06437193
0.00074559334 -0.052357253 418.01935 417.7576 417.54117 418.08307 -0.0417988 417.90756
0.007564763 418.24902 418.0842 -0.05229027 -0.051211413 0.057431154 417.89438 417.71774
-0.10130853 0.0061134254 -0.044911195 417.86856 -0.022269828 0.03309021 -0.050025262 0.013464832
-0.09600336 -0.028894305 417.8666 -0.07428022 418.49002 -0.028348614 -0.0073258774 -0.047786843
-0.03876591 418.15353 -0.086231746 418.14346 -0.09324487 -0.08257551 418.31653 417.77063
418.04184 -0.0020700865 -0.0857295 417.85693 -0.04611192 -0.03342376 0.05658781 0.008144101
417.88327 417.88748 0.066866994 418.02094 417.64706 -0.012553491 -0.04988351 0.0018188301

net.4.weight f4 [26, 64]
00000000: 3244 c1bc 0b40 553c 104e e33d 58f0 333d
00000010: 2177 5b43 44f5 d33d 2c4f e13d 0aa5 d3bd
00000020: b83a ba3d cdfc bdbc b082 5b43 298a 5b43
00000030: 0c57 5b43 3654 5b43 6a5a a4bd 305c 5b43
00000040: 79ec 77bb 196a 5b43 bc5e 5b43 c008 32bd
00000050: 80aa d93a 06f3 8abd 028d 5b43 4e55 5b43
00000060: a0bc c43d 2839 f2bd c5ba 263d fb69 5b43
00000070: f0ef cd3d a3bb 9cbc 2494 2dbd 05ec e5bd
00000080: 00c5 433d 76ec 6c3d 857b 5b43 0ef1 aebd
00000090: 367e 5b43 da23 c63d c850 afbb c07d d33b
000000a0: 0d98 a339 4789 5b43 d8f0 11bd 0d73 5b43
000000b0: 40f4 8c3d 7873 e93c c376 5b43 696a 5b43
000000c0: 2760 5b43 235e 803d 80b3 4b3d 5079 5b43
000000d0: e8d9 ee3c d6f6 a8bd 5666 3f3d 3eef 93bd
000000e0: 256b 5b43 3c64 5b43 7fdd 8b3d 3678 5b43
000000f0: c74b 5b43 8491 68bd ac8c 43bd 58f3 6dbd
00000100: 61e4 aebc 1892 983d 52c5 82bd 00e8 8f3d
00000110: 2495 2f42 25b1 aa3c 4887 863c 5551 473d
00000120: dc4d cabd 4bba ffbd c3fc 2f42 2ddb 2f42
00000130: 56ce 2f42 896e 2f42 851d 083c c004 3042
00000140: 3fae 913d f6cb 2f42 ff41 3042 a827 17bd
00000150: 000c 96b9 bdc2 9dbd 0dbd 2f42 dbad 2f42
00000160: 86f8 ca3c 663e 47bd 932a 11bd ad3a 3042
00000170: a868 373d 062e e8bd fc06 6a3d 3f3f 613d
00000180: b0e7 7ebd e60a fbbd 9981 2f42 2043 31bd
00000190: b9c5 2f42 545d 57bd 8cda e23d 9ae5 dfbd
000001a0: ff07 bc3d a376 2f42 1ea9 dc3d ea71 2f42
000001b0: 9467 afbd ac3a a93d 2e1f 3042 789e 2f42
000001c0: ac57 2f42 738b 793c a2c0 da3d 46ad 2f42
000001d0: 63a4 59bd c418 c83d 3f52 bb3d abb7 d13d
000001e0: adb0 2f42 0ab7 2f42 81f3 f4bd 4b2f 3042
000001f0: 94e0 2f42 9213 e0bd 8d86 b3bd 6842 18bd
00000200: 3aa9 af3c e8c2 90bd fa57 bf3d 1054 9fbc
00000210: d560 8e42 eff5 243d 8efd d13d 167b 213b
00000220: 7359 90bd d849 af3c f543 8e42 5bab 8e42
00000230: ccba 8e42 b778 8e42 2a70 dfbd af76 8e42
00000240: 364b ebbd 5771 8e42 0a5d 8e42 be88 8c3d
00000250: 68c6 c03c bcc0 72bc a985 8e42 e5a8 8e42
00000260: dc44 51bd ac1e cbbd d37b 46bd dc95 8e42
00000270: cee4 c9bd f8e8 35bd 02a6 b3bd f2f2 e3bd
00000280: 3207 c4bd fc33 8f3d fa7d 8e42 d60c 8cbd
00000290: 94a0 8e42 a257 a5bd 6397 88bd b265 eabd
000002a0: aea5 f33d 8f5c 8e42 90fc 9f3c c681 8e42
000002b0: e0e8 96bc 6a07 61bd 986d 8e42 1169 8e42
000002c0: dea5 8e42 507d 1ebd 3cdf eabd 02a8 8e42
000002d0: 5063 4bbc a2bb c1bd c5b3 ccbc ac51 0f3e
000002e0: bd54 8e42 d09d 8e42 24da 5abc d99a 8e42
000002f0: e48c 8e42 5007 d03c 74c8 573d 2262 a23d
00000300: 66e4 c6bd 18b1 e33d ea04 ff3d f0bd 123c
00000310: de28 3042 c40d a0bd d0b8 3fbd 78e5 d83d
00000320: ab07 5cbd b44f 3c3d 3ad1 2f42 e69f 2f42
00000330: 3a57 2f42 0ba8 2f42 2849 e23d d451 2f42
00000340: 1068 de3c ff2f 3042 fb7b 2f42 0056 213a
00000350: 72c0 de3d fc42 d53d e4f9 2f42 4e4e 3042
00000360: 98f7 7e3d 3cfd 4e3d 3060 d33c 0383 2f42
00000370: 1cfb f2bd d8af 2dbd 46e8 dbbd 104a aa3d
00000380: 6afc c9bd 0af5 c03d 8ada 2f42 4e8a 9dbd
00000390: 0827 3042 5895 03bd 70d4 13bd 803a 753d
000003a0: e450 6b3d 66d4 2f42 d00b 47bd d1ce 2f42
000003b0: 22fb d7bd f8f1 b03c 7350 3042 8840 3042
000003c0: 7d3f 3042 b760 b1bd 601d c9bd 91dd 2f42
000003d0: 88a8 87bc 4062 3c3b d0a8 a0bd 1c2c 733d
000003e0: fd90 2f42 228f 2f42 6642 b83d e883 2f42
000003f0: 5d58 2f42 e401 2d3d 26ca cabd cc9e 9cbd
-0.023592088 0.013015757 0.110988736 0.04393038 219.46535 0.10349515 0.11001429 -0.10334213
0.09093231 -0.023191834 219.5105 219.53969 219.34003 219.32895 -0.080250576 219.3601
-0.0037830158 219.41444 219.37006 -0.043465376 0.0016606599 -0.06784634 219.55081 219.33322
0.0960629 -0.11827308 0.04070546 219.41399 0.1005553 -0.01913244 -0.042377606 -0.11226658
0.047795296 0.057842694 219.4825 -0.08542071 219.49301 0.09674807 -0.005350206 0.0064541996
0.0003120307 219.53624 -0.035630077 219.44942 0.068825245 0.028497443 219.46391 219.41566
219.3756 0.06267955 0.04973173 219.47388 0.02915664 -0.08250205 0.046728455 -0.07223366
219.41853 219.39154 0.068293564 219.46957 219.296 -0.0567794 -0.047741577 -0.0580934
-0.021349134 0.0744974 -0.06385292 0.07026672 43.895645 0.020836422 0.016421929 0.04866155
-0.09878132 -0.124867044 43.996838 43.96404 43.9515 43.857944 0.008307819 44.00464
0.07113313 43.94918 44.06445 -0.036903054 -0.0002861917 -0.07703159 43.93462 43.91978
0.024776708 -0.048643492 -0.035440993 44.0573 0.044777542 -0.11336903 0.057135567 0.054991957
-0.062232673 -0.12257938 43.87656 -0.043276906 43.94309 -0.05257924 0.11076841 -0.10932465
0.09181213 43.865856 0.10774444 43.861244 -0.08564678 0.08263144 44.03045 43.904755
43.835617 0.015231001 0.10681273 43.919212 -0.053135287 0.09770349 0.091465466 0.1024011
43.922535 43.92875 -0.11960507 44.046185 43.969315 -0.10941233 -0.08765898 -0.037172705
0.021442998 -0.070684254 0.09342952 -0.019449264 71.189125 0.040273603 0.1025344 0.0024640015
-0.07048311 0.021397516 71.13273 71.33468 71.36484 71.23577 -0.109100655 71.231804
-0.11488955 71.22137 71.18172 0.06862019 0.023532107 -0.014816459 71.261055 71.32987
-0.05109106 -0.099179596 -0.04845793 71.292694 -0.09858094 -0.04441163 -0.08771898 -0.111303225
-0.09571685 0.06992337 71.24605 -0.06838386 71.31363 -0.08073355 -0.066695 -0.11445178
0.11896835 71.18078 0.01952961 71.25346 -0.01842159 -0.05493871 71.21405 71.20521
71.32396 -0.038693726 -0.1146836 71.32814 -0.012413815 -0.09459616 -0.024988065 0.13995999
71.165504 71.30823 -0.013357673 71.30244 71.27518 0.025394112 0.0526814 0.079288736
-0.09711532 0.11117762 0.12452109 0.008956417 44.03991 -0.078151256 -0.04680711 0.10590643
-0.05371825 0.04597445 43.954323 43.90615 43.835182 43.914104 0.1104911 43.82991
0.02714923 44.04687 43.871075 0.00061544776 0.1087655 0.10413167 43.994034 44.07647
0.062247843 0.050534472 0.025802702 43.87794 -0.118643016 -0.042404026 -0.10737662 0.083149076
-0.09862597 0.094217375 43.963417 -0.07692395 44.038116 -0.032124847 -0.036091268 0.059870243
0.05745019 43.95742 -0.04859525 43.95197 -0.10545947 0.021599755 44.078564 44.06302
44.062 -0.08661025 -0.09820056 43.966373 -0.016559854 0.0028745085 -0.078446984 0.059368238
43.89159 43.88978 0.089970395 43.878815 43.836292 0.04223813 -0.09901838 -0.076474756

net.4.bias f4 [26]
00000000: 18ec 5543 205f 3e42 0160 8742 7635 3e42
00000010: 5352 4042 9bd4 3b42 f151 3d42 06b8 3e42
00000020: cedd 3e42 5101 0543 0896 3b42 80f9 ce42
00000030: 8ed1 3b42 3549 3d42 dbf0 5242 e033 3f42
00000040: 5668 3742 c55a 3443 6390 6443 8c81 3f42
00000050: ea41 3c42 15b6 3c42 f0a2 3a42 8dff 3942
00000060: 493f 3e42 4ada 3d42
213.92224 47.592896 67.68751 47.552208 48.080395 46.957623 47.33002 47.67971
47.716606 133.00514 46.896515 103.487305 46.954643 47.32149 52.73521 47.80066
45.85189 180.35457 228.56401 47.87651 47.06437 47.177814 46.65912 46.49956
47.561802 47.463173
